…
ain, epochs=epochs, validation_data=ds_test,\n","                 callbacks=[tf.keras.callbacks.EarlyStopping(patience=10)],\n","                 verbose=2)\n"],"execution_count":null,"outputs":[{"output_type":"stream","text":["Model: \"efficientneta0\"\n","__________________________________________________________________________________________________\n","Layer (type)                    Output Shape         Param #     Connected to                     \n","==================================================================================================\n","input_17 (InputLayer)           [(None, 224, 224, 3) 0                                            \n","__________________________________________________________________________________________________\n","rescaling_7 (Rescaling)         (None, 224, 224, 3)  0           input_17[0][0]                   \n","__________________________________________________________________________________________________\n","normalization_7 (Normalization) (None, 224, 224, 3)  7           rescaling_7[0][0]                \n","__________________________________________________________________________________________________\n","stem_conv_pad (ZeroPadding2D)   (None, 225, 225, 3)  0           normalization_7[0][0]            \n","__________________________________________________________________________________________________\n","stem_conv (Conv2D)              (None, 112, 112, 24) 648         stem_conv_pad[0][0]              \n","__________________________________________________________________________________________________\n","stem_bn (BatchNormalization)    (None, 112, 112, 24) 96          stem_conv[0][0]                  \n","__________________________________________________________________________________________________\n","stem_activation (Activation)    (None, 112, 112, 24) 0           stem_bn[0][0]                    \n","__________________________________________________________________________________________________\n","block1a_dwconv (DepthwiseConv2D (None, 112, 112, 24) 216         stem_activation[0][0]            \n","__________________________________________________________________________________________________\n","block1a_bn (BatchNormalization) (None, 112, 112, 24) 96          block1a_dwconv[0][0]             \n","__________________________________________________________________________________________________\n","block1a_activation (Activation) (None, 112, 112, 24) 0           block1a_bn[0][0]                 \n","__________________________________________________________________________________________________\n","block1a_se_squeeze (GlobalAvera (None, 24)           0           block1a_activation[0][0]         \n","__________________________________________________________________________________________________\n","block1a_se_reshape (Reshape)    (None, 1, 1, 24)     0           block1a_se_squeeze[0][0]         \n","__________________________________________________________________________________________________\n","block1a_se_reduce (Conv2D)      (None, 1, 1, 6)      150         block1a_se_reshape[0][0]         \n","__________________________________________________________________________________________________\n","block1a_se_expand (Conv2D)      (None, 1, 1, 24)     168         block1a_se_reduce[0][0]          \n","__________________________________________________________________________________________________\n","block1a_se_excite (Multiply)    (None, 112, 112, 24) 0           block1a_activation[0][0]         \n","                                                                 block1a_se_expand[0][0]          \n","__________________________________________________________________________________________________\n","block1a_project_conv (Conv2D)   (None, 112, 112, 16) 384         block1a_se_excite[0][0]          \n","__________________________________________________________________________________________________\n","block1a_project_bn (BatchNormal (None, 112, 112, 16) 64          block1a_project_conv[0][0]       \n","__________________________________________________________________________________________________\n","block2a_expand_conv (Conv2D)    (None, 112, 112, 96) 1536        block1a_project_bn[0][0]         \n","__________________________________________________________________________________________________\n","block2a_expand_bn (BatchNormali (None, 112, 112, 96) 384         block2a_expand_conv[0][0]        \n","__________________________________________________________________________________________________\n","block2a_expand_activation (Acti (None, 112, 112, 96) 0           block2a_expand_bn[0][0]          \n","__________________________________________________________________________________________________\n","block2a_dwconv_pad (ZeroPadding (None, 113, 113, 96) 0           block2a_expand_activation[0][0]  \n","__________________________________________________________________________________________________\n","block2a_dwconv (DepthwiseConv2D (None, 56, 56, 96)   864         block2a_dwconv_pad[0][0]         \n","__________________________________________________________________________________________________\n","block2a_bn (BatchNormalization) (None, 56, 56, 96)   384         block2a_dwconv[0][0]             \n","__________________________________________________________________________________________________\n","block2a_activation (Activation) (None, 56, 56, 96)   0           block2a_bn[0][0]                 \n","__________________________________________________________________________________________________\n","block2a_se_squeeze (GlobalAvera (None, 96)           0           block2a_activation[0][0]         \n","__________________________________________________________________________________________________\n","block2a_se_reshape (Reshape)    (None, 1, 1, 96)     0           block2a_se_squeeze[0][0]         \n","__________________________________________________________________________________________________\n","block2a_se_reduce (Conv2D)      (None, 1, 1, 4)      388         block2a_se_reshape[0][0]         \n","__________________________________________________________________________________________________\n","block2a_se_expand (Conv2D)      (None, 1, 1, 96)     480         block2a_se_reduce[0][0]          \n","__________________________________________________________________________________________________\n","block2a_se_excite (Multiply)    (None, 56, 56, 96)   0           block2a_activation[0][0]         \n","                                                                 block2a_se_expand[0][0]          \n","__________________________________________________________________________________________________\n","block2a_project_conv (Conv2D)   (None, 56, 56, 16)   1536        block2a_se_excite[0][0]          \n","__________________________________________________________________________________________________\n","block2a_project_bn (BatchNormal (None, 56, 56, 16)   64          block2a_project_conv[0][0]       \n","__________________________________________________________________________________________________\n","block2b_expand_conv (Conv2D)    (None, 56, 56, 96)   1536        block2a_project_bn[0][0]         \n","__________________________________________________________________________________________________\n","block2b_expand_bn (BatchNormali (None, 56, 56, 96)   384         block2b_expand_conv[0][0]        \n","__________________________________________________________________________________________________\n","block2b_expand_activation (Acti (None, 56, 56, 96)   0           block2b_expand_bn[0][0]          \n","__________________________________________________________________________________________________\n","block2b_dwconv (DepthwiseConv2D (None, 56, 56, 96)   864         block2b_expand_activation[0][0]  \n","__________________________________________________________________________________________________\n","block2b_bn (BatchNormalization) (None, 56, 56, 96)   384         block2b_dwconv[0][0]             \n","__________________________________________________________________________________________________\n","block2b_activation (Activation) (None, 56, 56, 96)   0           block2b_bn[0][0]                 \n","__________________________________________________________________________________________________\n","block2b_se_squeeze (GlobalAvera (None, 96)           0           block2b_activation[0][0]         \n","__________________________________________________________________________________________________\n","block2b_se_reshape (Reshape)    (None, 1, 1, 96)     0           block2b_se_squeeze[0][0]         \n","__________________________________________________________________________________________________\n","block2b_se_reduce (Conv2D)      (None, 1, 1, 4)      388         block2b_se_reshape[0][0]         \n","__________________________________________________________________________________________________\n","block2b_se_expand (Conv2D)      (None, 1, 1, 96)     480         block2b_se_reduce[0][0]          \n","__________________________________________________________________________________________________\n","block2b_se_excite (Multiply)    (None, 56, 56, 96)   0           block2b_activation[0][0]         \n","                                                                 block2b_se_expand[0][0]          \n","__________________________________________________________________________________________________\n","block2b_project_conv (Conv2D)   (None, 56, 56, 16)   1536        block2b_se_excite[0][0]          \n","__________________________________________________________________________________________________\n","block2b_project_bn (BatchNormal (None, 56, 56, 16)   64          block2b_project_conv[0][0]       \n","__________________________________________________________________________________________________\n","block2b_drop (Dropout)          (None, 56, 56, 16)   0           block2b_project_bn[0][0]         \n","__________________________________________________________________________________________________\n","block2b_add (Add)               (None, 56, 56, 16)   0           block2b_drop[0][0]               \n","                                                                 block2a_project_bn[0][0]         \n","__________________________________________________________________________________________________\n","block3a_expand_conv (Conv2D)    (None, 56, 56, 96)   1536        block2b_add[0][0]                \n","__________________________________________________________________________________________________\n","block3a_expand_bn (BatchNormali (None, 56, 56, 96)   384         block3a_expand_conv[0][0]        \n","__________________________________________________________________________________________________\n","block3a_expand_activation (Acti (None, 56, 56, 96)   0           block3a_expand_bn[0][0]          \n","__________________________________________________________________________________________________\n","block3a_dwconv_pad (ZeroPadding (None, 59, 59, 96)   0           block3a_expand_activation[0][0]  \n","__________________________________________________________________________________________________\n","block3a_dwconv (DepthwiseConv2D (None, 28, 28, 96)   2400        block3a_dwconv_pad[0][0]         \n","__________________________________________________________________________________________________\n","block3a_bn (BatchNormalization) (None, 28, 28, 96)   384         block3a_dwconv[0][0]             \n","__________________________________________________________________________________________________\n","block3a_activation (Activation) (None, 28, 28, 96)   0           block3a_bn[0][0]                 \n","__________________________________________________________________________________________________\n","block3a_se_squeeze (GlobalAvera (None, 96)           0           block3a_activation[0][0]         \n","__________________________________________________________________________________________________\n","block3a_se_reshape (Reshape)    (None, 1, 1, 96)     0           block3a_se_squeeze[0][0]         \n","__________________________________________________________________________________________________\n","block3a_se_reduce (Conv2D)      (None, 1, 1, 4)      388         block3a_se_reshape[0][0]         \n","__________________________________________________________________________________________________\n","block3a_se_expand (Conv2D)      (None, 1, 1, 96)     480         block3a_se_reduce[0][0]          \n","__________________________________________________________________________________________________\n","block3a_se_excite (Multiply)    (None, 28, 28, 96)   0           block3a_activation[0][0]         \n","                                                                 block3a_se_expand[0][0]          \n","__________________________________________________________________________________________________\n","block3a_project_conv (Conv2D)   (None, 28, 28, 24)   2304        block3a_se_excite[0][0]          \n","__________________________________________________________________________________________________\n","block3a_project_bn (BatchNormal (None, 28, 28, 24)   96          block3a_project_conv[0][0]       \n","__________________________________________________________________________________________________\n","block3b_expand_conv (Conv2D)    (None, 28, 28, 144)  3456        block3a_project_bn[0][0]         \n","__________________________________________________________________________________________________\n","block3b_expand_bn (BatchNormali (None, 28, 28, 144)  576         block3b_expand_conv[0][0]        \n","__________________________________________________________________________________________________\n","block3b_expand_activation (Acti (None, 28, 28, 144)  0           block3b_expand_bn[0][0]          \n","__________________________________________________________________________________________________\n","block3b_dwconv (DepthwiseConv2D (None, 28, 28, 144)  3600        block3b_expand_activation[0][0]  \n","__________________________________________________________________________________________________\n","block3b_bn (BatchNormalization) (None, 28, 28, 144)  576         block3b_dwconv[0][0]             \n","__________________________________________________________________________________________________\n","block3b_activation (Activation) (None, 28, 28, 144)  0           block3b_bn[0][0]                 \n","__________________________________________________________________________________________________\n","block3b_se_squeeze (GlobalAvera (None, 144)          0           block3b_activation[0][0]         \n","__________________________________________________________________________________________________\n","block3b_se_reshape (Reshape)    (None, 1, 1, 144)    0           block3b_se_squeeze[0][0]         \n","__________________________________________________________________________________________________\n","block3b_se_reduce (Conv2D)      (None, 1, 1, 6)      870         block3b_se_reshape[0][0]         \n","__________________________________________________________________________________________________\n","block3b_se_expand (Conv2D)      (None, 1, 1, 144)    1008        block3b_se_reduce[0][0]          \n","__________________________________________________________________________________________________\n","block3b_se_excite (Multiply)    (None, 28, 28, 144)  0           block3b_activation[0][0]         \n","                                                                 block3b_se_expand[0][0]          \n","__________________________________________________________________________________________________\n","block3b_project_conv (Conv2D)   (None, 28, 28, 24)   3456        block3b_se_excite[0][0]          \n","__________________________________________________________________________________________________\n","block3b_project_bn (BatchNormal (None, 28, 28, 24)   96          block3b_project_conv[0][0]       \n","__________________________________________________________________________________________________\n","block3b_drop (Dropout)          (None, 28, 28, 24)   0           block3b_project_bn[0][0]         \n","__________________________________________________________________________________________________\n","block3b_add (Add)               (None, 28, 28, 24)   0           block3b_drop[0][0]               \n","                                                                 block3a_project_bn[0][0]         \n","__________________________________________________________________________________________________\n","block4a_expand_conv (Conv2D)    (None, 28, 28, 144)  3456        block3b_add[0][0]                \n","__________________________________________________________________________________________________\n","block4a_expand_bn (BatchNormali (None, 28, 28, 144)  576         block4a_expand_conv[0][0]        \n","__________________________________________________________________________________________________\n","block4a_expand_activation (Acti (None, 28, 28, 144)  0           block4a_expand_bn[0][0]          \n","__________________________________________________________________________________________________\n","block4a_dwconv_pad (ZeroPadding (None, 29, 29, 144)  0           block4a_expand_activation[0][0]  \n","__________________________________________________________________________________________________\n","block4a_dwconv (DepthwiseConv2D (None, 14, 14, 144)  1296        block4a_dwconv_pad[0][0]         \n","__________________________________________________________________________________________________\n","block4a_bn (BatchNormalization) (None, 14, 14, 144)  576         block4a_dwconv[0][0]             \n","__________________________________________________________________________________________________\n","block4a_activation (Activation) (None, 14, 14, 144)  0           block4a_bn[0][0]                 \n","__________________________________________________________________________________________________\n","block4a_se_squeeze (GlobalAvera (None, 144)          0           block4a_activation[0][0]         \n","__________________________________________________________________________________________________\n","block4a_se_reshape (Reshape)    (None, 1, 1, 144)    0           block4a_se_squeeze[0][0]         \n","__________________________________________________________________________________________________\n","block4a_se_reduce (Conv2D)      (None, 1, 1, 6)      870         block4a_se_reshape[0][0]         \n","__________________________________________________________________________________________________\n","block4a_se_expand (Conv2D)      (None, 1, 1, 144)    1008        block4a_se_reduce[0][0]          \n","__________________________________________________________________________________________________\n","block4a_se_excite (Multiply)    (None, 14, 14, 144)  0           block4a_activation[0][0]         \n","                                                                 block4a_se_expand[0][0]          \n","__________________________________________________________________________________________________\n","block4a_project_conv (Conv2D)   (None, 14, 14, 48)   6912        block4a_se_excite[0][0]          \n","__________________________________________________________________________________________________\n","block4a_project_bn (BatchNormal (None, 14, 14, 48)   192         block4a_project_conv[0][0]       \n","__________________________________________________________________________________________________\n","block4b_expand_conv (Conv2D)    (None, 14, 14, 288)  13824       block4a_project_bn[0][0]         \n","__________________________________________________________________________________________________\n","block4b_expand_bn (BatchNormali (None, 14, 14, 288)  1152        block4b_expand_conv[0][0]        \n","__________________________________________________________________________________________________\n","block4b_expand_activation (Acti (None, 14, 14, 288)  0           block4b_expand_bn[0][0]          \n","__________________________________________________________________________________________________\n","block4b_dwconv (DepthwiseConv2D (None, 14, 14, 288)  2592        block4b_expand_activation[0][0]  \n","__________________________________________________________________________________________________\n","block4b_bn (BatchNormalization) (None, 14, 14, 288)  1152        block4b_dwconv[0][0]             \n","__________________________________________________________________________________________________\n","block4b_activation (Activation) (None, 14, 14, 288)  0           block4b_bn[0][0]                 \n","__________________________________________________________________________________________________\n","block4b_se_squeeze (GlobalAvera (None, 288)          0           block4b_activation[0][0]         \n","__________________________________________________________________________________________________\n","block4b_se_reshape (Reshape)    (None, 1, 1, 288)    0           block4b_se_squeeze[0][0]         \n","__________________________________________________________________________________________________\n","block4b_se_reduce (Conv2D)      (None, 1, 1, 12)     3468        block4b_se_reshape[0][0]         \n","__________________________________________________________________________________________________\n","block4b_se_expand (Conv2D)      (None, 1, 1, 288)    3744        block4b_se_reduce[0][0]          \n","__________________________________________________________________________________________________\n","block4b_se_excite (Multiply)    (None, 14, 14, 288)  0           block4b_activation[0][0]         \n","                                                                 block4b_se_expand[0][0]          \n","__________________________________________________________________________________________________\n","block4b_project_conv (Conv2D)   (None, 14, 14, 48)   13824       block4b_se_excite[0][0]          \n","__________________________________________________________________________________________________\n","block4b_project_bn (BatchNormal (None, 14, 14, 48)   192         block4b_project_conv[0][0]       \n","__________________________________________________________________________________________________\n","block4b_drop (Dropout)          (None, 14, 14, 48)   0           block4b_project_bn[0][0]         \n","__________________________________________________________________________________________________\n","block4b_add (Add)               (None, 14, 14, 48)   0           block4b_drop[0][0]               \n","                                                                 block4a_project_bn[0][0]         \n","__________________________________________________________________________________________________\n","block4c_expand_conv (Conv2D)    (None, 14, 14, 288)  13824       block4b_add[0][0]                \n","__________________________________________________________________________________________________\n","block4c_expand_bn (BatchNormali (None, 14, 14, 288)  1152        block4c_expand_conv[0][0]        \n","__________________________________________________________________________________________________\n","block4c_expand_activation (Acti (None, 14, 14, 288)  0           block4c_expand_bn[0][0]          \n","__________________________________________________________________________________________________\n","block4c_dwconv (DepthwiseConv2D (None, 14, 14, 288)  2592        block4c_expand_activation[0][0]  \n","__________________________________________________________________________________________________\n","block4c_bn (BatchNormalization) (None, 14, 14, 288)  1152        block4c_dwconv[0][0]             \n","__________________________________________________________________________________________________\n","block4c_activation (Activation) (None, 14, 14, 288)  0           block4c_bn[0][0]                 \n","__________________________________________________________________________________________________\n","block4c_se_squeeze (GlobalAvera (None, 288)          0           block4c_activation[0][0]         \n","__________________________________________________________________________________________________\n","block4c_se_reshape (Reshape)    (None, 1, 1, 288)    0           block4c_se_squeeze[0][0]         \n","__________________________________________________________________________________________________\n","block4c_se_reduce (Conv2D)      (None, 1, 1, 12)     3468        block4c_se_reshape[0][0]         \n","__________________________________________________________________________________________________\n","block4c_se_expand (Conv2D)      (None, 1, 1, 288)    3744        block4c_se_reduce[0][0]          \n","__________________________________________________________________________________________________\n","block4c_se_excite (Multiply)    (None, 14, 14, 288)  0           block4c_activation[0][0]         \n","                                                                 block4c_se_expand[0][0]          \n","__________________________________________________________________________________________________\n","block4c_project_conv (Conv2D)   (None, 14, 14, 48)   13824       block4c_se_excite[0][0]          \n","__________________________________________________________________________________________________\n","block4c_project_bn (BatchNormal (None, 14, 14, 48)   192         block4c_project_conv[0][0]       \n","__________________________________________________________________________________________________\n","block4c_drop (Dropout)          (None, 14, 14, 48)   0           block4c_project_bn[0][0]         \n","__________________________________________________________________________________________________\n","block4c_add (Add)               (None, 14, 14, 48)   0           block4c_drop[0][0]               \n","                                                                 block4b_add[0][0]                \n","__________________________________________________________________________________________________\n","block5a_expand_conv (Conv2D)    (None, 14, 14, 288)  13824       block4c_add[0][0]                \n","__________________________________________________________________________________________________\n","block5a_expand_bn (BatchNormali (None, 14, 14, 288)  1152        block5a_expand_conv[0][0]        \n","__________________________________________________________________________________________________\n","block5a_expand_activation (Acti (None, 14, 14, 288)  0           block5a_expand_bn[0][0]          \n","__________________________________________________________________________________________________\n","block5a_dwconv (DepthwiseConv2D (None, 14, 14, 288)  7200        block5a_expand_activation[0][0]  \n","__________________________________________________________________________________________________\n","block5a_bn (BatchNormalization) (None, 14, 14, 288)  1152        block5a_dwconv[0][0]             \n","__________________________________________________________________________________________________\n","block5a_activation (Activation) (None, 14, 14, 288)  0           block5a_bn[0][0]                 \n","__________________________________________________________________________________________________\n","block5a_se_squeeze (GlobalAvera (None, 288)          0           block5a_activation[0][0]         \n","__________________________________________________________________________________________________\n","block5a_se_reshape (Reshape)    (None, 1, 1, 288)    0           block5a_se_squeeze[0][0]         \n","__________________________________________________________________________________________________\n","block5a_se_reduce (Conv2D)      (None, 1, 1, 12)     3468        block5a_se_reshape[0][0]         \n","__________________________________________________________________________________________________\n","block5a_se_expand (Conv2D)      (None, 1, 1, 288)    3744        block5a_se_reduce[0][0]          \n","__________________________________________________________________________________________________\n","block5a_se_excite (Multiply)    (None, 14, 14, 288)  0           block5a_activation[0][0]         \n","                                                                 block5a_se_expand[0][0]          \n","__________________________________________________________________________________________________\n","block5a_project_conv (Conv2D)   (None, 14, 14, 64)   18432       block5a_se_excite[0][0]          \n","__________________________________________________________________________________________________\n","block5a_project_bn (BatchNormal (None, 14, 14, 64)   256         block5a_project_conv[0][0]       \n","__________________________________________________________________________________________________\n","block5b_expand_conv (Conv2D)    (None, 14, 14, 384)  24576       block5a_project_bn[0][0]         \n","__________________________________________________________________________________________________\n","block5b_expand_bn (BatchNormali (None, 14, 14, 384)  1536        block5b_expand_conv[0][0]        \n","__________________________________________________________________________________________________\n","block5b_expand_activation (Acti (None, 14, 14, 384)  0           block5b_expand_bn[0][0]          \n","__________________________________________________________________________________________________\n","block5b_dwconv (DepthwiseConv2D (None, 14, 14, 384)  9600        block5b_expand_activation[0][0]  \n","__________________________________________________________________________________________________\n","block5b_bn (BatchNormalization) (None, 14, 14, 384)  1536        block5b_dwconv[0][0]             \n","__________________________________________________________________________________________________\n","block5b_activation (Activation) (None, 14, 14, 384)  0           block5b_bn[0][0]                 \n","__________________________________________________________________________________________________\n","block5b_se_squeeze (GlobalAvera (None, 384)          0           block5b_activation[0][0]         \n","__________________________________________________________________________________________________\n","block5b_se_reshape (Reshape)    (None, 1, 1, 384)    0           block5b_se_squeeze[0][0]         \n","__________________________________________________________________________________________________\n","block5b_se_reduce (Conv2D)      (None, 1, 1, 16)     6160        block5b_se_reshape[0][0]         \n","__________________________________________________________________________________________________\n","block5b_se_expand (Conv2D)      (None, 1, 1, 384)    6528        block5b_se_reduce[0][0]          \n","__________________________________________________________________________________________________\n","block5b_se_excite (Multiply)    (None, 14, 14, 384)  0           block5b_activation[0][0]         \n","                                                                 block5b_se_expand[0][0]          \n","__________________________________________________________________________________________________\n","block5b_project_conv (Conv2D)   (None, 14, 14, 64)   24576       block5b_se_excite[0][0]          \n","__________________________________________________________________________________________________\n","block5b_project_bn (BatchNormal (None, 14, 14, 64)   256         block5b_project_conv[0][0]       \n","__________________________________________________________________________________________________\n","block5b_drop (Dropout)          (None, 14, 14, 64)   0           block5b_project_bn[0][0]         \n","__________________________________________________________________________________________________\n","block5b_add (Add)               (None, 14, 14, 64)   0           block5b_drop[0][0]               \n","                                                                 block5a_project_bn[0][0]         \n","__________________________________________________________________________________________________\n","block5c_expand_conv (Conv2D)    (None, 14, 14, 384)  24576       block5b_add[0][0]                \n","__________________________________________________________________________________________________\n","block5c_expand_bn (BatchNormali (None, 14, 14, 384)  1536        block5c_expand_conv[0][0]        \n","__________________________________________________________________________________________________\n","block5c_expand_activation (Acti (None, 14, 14, 384)  0           block5c_expand_bn[0][0]          \n","__________________________________________________________________________________________________\n","block5c_dwconv (DepthwiseConv2D (None, 14, 14, 384)  9600        block5c_expand_activation[0][0]  \n","__________________________________________________________________________________________________\n","block5c_bn (BatchNormalization) (None, 14, 14, 384)  1536        block5c_dwconv[0][0]             \n","__________________________________________________________________________________________________\n","block5c_activation (Activation) (None, 14, 14, 384)  0           block5c_bn[0][0]                 \n","__________________________________________________________________________________________________\n","block5c_se_squeeze (GlobalAvera (None, 384)          0           block5c_activation[0][0]         \n","__________________________________________________________________________________________________\n","block5c_se_reshape (Reshape)    (None, 1, 1, 384)    0           block5c_se_squeeze[0][0]         \n","__________________________________________________________________________________________________\n","block5c_se_reduce (Conv2D)      (None, 1, 1, 16)     6160        block5c_se_reshape[0][0]         \n","__________________________________________________________________________________________________\n","block5c_se_expand (Conv2D)      (None, 1, 1, 384)    6528        block5c_se_reduce[0][0]          \n","__________________________________________________________________________________________________\n","block5c_se_excite (Multiply)    (None, 14, 14, 384)  0           block5c_activation[0][0]         \n","                                                                 block5c_se_expand[0][0]          \n","__________________________________________________________________________________________________\n","block5c_project_conv (Conv2D)   (None, 14, 14, 64)   24576       block5c_se_excite[0][0]          \n","__________________________________________________________________________________________________\n","block5c_project_bn (BatchNormal (None, 14, 14, 64)   256         block5c_project_conv[0][0]       \n","__________________________________________________________________________________________________\n","block5c_drop (Dropout)          (None, 14, 14, 64)   0           block5c_project_bn[0][0]         \n","__________________________________________________________________________________________________\n","block5c_add (Add)               (None, 14, 14, 64)   0           block5c_drop[0][0]               \n","                                                                 block5b_add[0][0]                \n","__________________________________________________________________________________________________\n","block6a_expand_conv (Conv2D)    (None, 14, 14, 384)  24576       block5c_add[0][0]                \n","__________________________________________________________________________________________________\n","block6a_expand_bn (BatchNormali (None, 14, 14, 384)  1536        block6a_expand_conv[0][0]        \n","__________________________________________________________________________________________________\n","block6a_expand_activation (Acti (None, 14, 14, 384)  0           block6a_expand_bn[0][0]          \n","__________________________________________________________________________________________________\n","block6a_dwconv_pad (ZeroPadding (None, 17, 17, 384)  0           block6a_expand_activation[0][0]  \n","__________________________________________________________________________________________________\n","block6a_dwconv (DepthwiseConv2D (None, 7, 7, 384)    9600        block6a_dwconv_pad[0][0]         \n","__________________________________________________________________________________________________\n","block6a_bn (BatchNormalization) (None, 7, 7, 384)    1536        block6a_dwconv[0][0]             \n","__________________________________________________________________________________________________\n","block6a_activation (Activation) (None, 7, 7, 384)    0           block6a_bn[0][0]                 \n","__________________________________________________________________________________________________\n","block6a_se_squeeze (GlobalAvera (None, 384)          0           block6a_activation[0][0]         \n","__________________________________________________________________________________________________\n","block6a_se_reshape (Reshape)    (None, 1, 1, 384)    0           block6a_se_squeeze[0][0]         \n","__________________________________________________________________________________________________\n","block6a_se_reduce (Conv2D)      (None, 1, 1, 16)     6160        block6a_se_reshape[0][0]         \n","__________________________________________________________________________________________________\n","block6a_se_expand (Conv2D)      (None, 1, 1, 384)    6528        block6a_se_reduce[0][0]          \n","__________________________________________________________________________________________________\n","block6a_se_excite (Multiply)    (None, 7, 7, 384)    0           block6a_activation[0][0]         \n","                                                                 block6a_se_expand[0][0]          \n","__________________________________________________________________________________________________\n","block6a_project_conv (Conv2D)   (None, 7, 7, 112)    43008       block6a_se_excite[0][0]          \n","__________________________________________________________________________________________________\n","block6a_project_bn (BatchNormal (None, 7, 7, 112)    448         block6a_project_conv[0][0]       \n","__________________________________________________________________________________________________\n","block6b_expand_conv (Conv2D)    (None, 7, 7, 672)    75264       block6a_project_bn[0][0]         \n","__________________________________________________________________________________________________\n","block6b_expand_bn (BatchNormali (None, 7, 7, 672)    2688        block6b_expand_conv[0][0]        \n","__________________________________________________________________________________________________\n","block6b_expand_activation (Acti (None, 7, 7, 672)    0           block6b_expand_bn[0][0]          \n","__________________________________________________________________________________________________\n","block6b_dwconv (DepthwiseConv2D (None, 7, 7, 672)    16800       block6b_expand_activation[0][0]  \n","__________________________________________________________________________________________________\n","block6b_bn (BatchNormalization) (None, 7, 7, 672)    2688        block6b_dwconv[0][0]             \n","__________________________________________________________________________________________________\n","block6b_activation (Activation) (None, 7, 7, 672)    0           block6b_bn[0][0]                 \n","__________________________________________________________________________________________________\n","block6b_se_squeeze (GlobalAvera (None, 672)          0           block6b_activation[0][0]         \n","__________________________________________________________________________________________________\n","block6b_se_reshape (Reshape)    (None, 1, 1, 672)    0           block6b_se_squeeze[0][0]         \n","__________________________________________________________________________________________________\n","block6b_se_reduce (Conv2D)      (None, 1, 1, 28)     18844       block6b_se_reshape[0][0]         \n","__________________________________________________________________________________________________\n","block6b_se_expand (Conv2D)      (None, 1, 1, 672)    19488       block6b_se_reduce[0][0]          \n","__________________________________________________________________________________________________\n","block6b_se_excite (Multiply)    (None, 7, 7, 672)    0           block6b_activation[0][0]         \n","                                                                 block6b_se_expand[0][0]          \n","__________________________________________________________________________________________________\n","block6b_project_conv (Conv2D)   (None, 7, 7, 112)    75264       block6b_se_excite[0][0]          \n","__________________________________________________________________________________________________\n","block6b_project_bn (BatchNormal (None, 7, 7, 112)    448         block6b_project_conv[0][0]       \n","__________________________________________________________________________________________________\n","block6b_drop (Dropout)          (None, 7, 7, 112)    0           block6b_project_bn[0][0]         \n","__________________________________________________________________________________________________\n","block6b_add (Add)               (None, 7, 7, 112)    0           block6b_drop[0][0]               \n","                                                                 block6a_project_bn[0][0]         \n","__________________________________________________________________________________________________\n","block6c_expand_conv (Conv2D)    (None, 7, 7, 672)    75264       block6b_add[0][0]                \n","__________________________________________________________________________________________________\n","block6c_expand_bn (BatchNormali (None, 7, 7, 672)    2688        block6c_expand_conv[0][0]        \n","__________________________________________________________________________________________________\n","block6c_expand_activation (Acti (None, 7, 7, 672)    0           block6c_expand_bn[0][0]          \n","__________________________________________________________________________________________________\n","block6c_dwconv (DepthwiseConv2D (None, 7, 7, 672)    16800       block6c_expand_activation[0][0]  \n","__________________________________________________________________________________________________\n","block6c_bn (BatchNormalization) (None, 7, 7, 672)    2688        block6c_dwconv[0][0]             \n","__________________________________________________________________________________________________\n","block6c_activation (Activation) (None, 7, 7, 672)    0           block6c_bn[0][0]                 \n","__________________________________________________________________________________________________\n","block6c_se_squeeze (GlobalAvera (None, 672)          0           block6c_activation[0][0]         \n","__________________________________________________________________________________________________\n","block6c_se_reshape (Reshape)    (None, 1, 1, 672)    0           block6c_se_squeeze[0][0]         \n","__________________________________________________________________________________________________\n","block6c_se_reduce (Conv2D)      (None, 1, 1, 28)     18844       block6c_se_reshape[0][0]         \n","__________________________________________________________________________________________________\n","block6c_se_expand (Conv2D)      (None, 1, 1, 672)    19488       block6c_se_reduce[0][0]          \n","__________________________________________________________________________________________________\n","block6c_se_excite (Multiply)    (None, 7, 7, 672)    0           block6c_activation[0][0]         \n","                                                                 block6c_se_expand[0][0]          \n","__________________________________________________________________________________________________\n","block6c_project_conv (Conv2D)   (None, 7, 7, 112)    75264       block6c_se_excite[0][0]          \n","__________________________________________________________________________________________________\n","block6c_project_bn (BatchNormal (None, 7, 7, 112)    448         block6c_project_conv[0][0]       \n","__________________________________________________________________________________________________\n","block6c_drop (Dropout)          (None, 7, 7, 112)    0           block6c_project_bn[0][0]         \n","__________________________________________________________________________________________________\n","block6c_add (Add)               (None, 7, 7, 112)    0           block6c_drop[0][0]               \n","                                                                 block6b_add[0][0]                \n","__________________________________________________________________________________________________\n","block6d_expand_conv (Conv2D)    (None, 7, 7, 672)    75264       block6c_add[0][0]                \n","__________________________________________________________________________________________________\n","block6d_expand_bn (BatchNormali (None, 7, 7, 672)    2688        block6d_expand_conv[0][0]        \n","__________________________________________________________________________________________________\n","block6d_expand_activation (Acti (None, 7, 7, 672)    0           block6d_expand_bn[0][0]          \n","__________________________________________________________________________________________________\n","block6d_dwconv (DepthwiseConv2D (None, 7, 7, 672)    16800       block6d_expand_activation[0][0]  \n","__________________________________________________________________________________________________\n","block6d_bn (BatchNormalization) (None, 7, 7, 672)    2688        block6d_dwconv[0][0]             \n","__________________________________________________________________________________________________\n","block6d_activation (Activation) (None, 7, 7, 672)    0           block6d_bn[0][0]                 \n","__________________________________________________________________________________________________\n","block6d_se_squeeze (GlobalAvera (None, 672)          0           block6d_activation[0][0]         \n","__________________________________________________________________________________________________\n","block6d_se_reshape (Reshape)    (None, 1, 1, 672)    0           block6d_se_squeeze[0][0]         \n","__________________________________________________________________________________________________\n","block6d_se_reduce (Conv2D)      (None, 1, 1, 28)     18844       block6d_se_reshape[0][0]         \n","__________________________________________________________________________________________________\n","block6d_se_expand (Conv2D)      (None, 1, 1, 672)    19488       block6d_se_reduce[0][0]          \n","__________________________________________________________________________________________________\n","block6d_se_excite (Multiply)    (None, 7, 7, 672)    0           block6d_activation[0][0]         \n","                                                                 block6d_se_expand[0][0]          \n","__________________________________________________________________________________________________\n","block6d_project_conv (Conv2D)   (None, 7, 7, 112)    75264       block6d_se_excite[0][0]          \n","__________________________________________________________________________________________________\n","block6d_project_bn (BatchNormal (None, 7, 7, 112)    448         block6d_project_conv[0][0]       \n","__________________________________________________________________________________________________\n","block6d_drop (Dropout)          (None, 7, 7, 112)    0           block6d_project_bn[0][0]         \n","__________________________________________________________________________________________________\n","block6d_add (Add)               (None, 7, 7, 112)    0           block6d_drop[0][0]               \n","                                                                 block6c_add[0][0]                \n","__________________________________________________________________________________________________\n","block7a_expand_conv (Conv2D)    (None, 7, 7, 672)    75264       block6d_add[0][0]                \n","__________________________________________________________________________________________________\n","block7a_expand_bn (BatchNormali (None, 7, 7, 672)    2688        block7a_expand_conv[0][0]        \n","__________________________________________________________________________________________________\n","block7a_expand_activation (Acti (None, 7, 7, 672)    0           block7a_expand_bn[0][0]          \n","__________________________________________________________________________________________________\n","block7a_dwconv (DepthwiseConv2D (None, 7, 7, 672)    6048        block7a_expand_activation[0][0]  \n","__________________________________________________________________________________________________\n","block7a_bn (BatchNormalization) (None, 7, 7, 672)    2688        block7a_dwconv[0][0]             \n","__________________________________________________________________________________________________\n","block7a_activation (Activation) (None, 7, 7, 672)    0           block7a_bn[0][0]                 \n","__________________________________________________________________________________________________\n","block7a_se_squeeze (GlobalAvera (None, 672)          0           block7a_activation[0][0]         \n","__________________________________________________________________________________________________\n","block7a_se_reshape (Reshape)    (None, 1, 1, 672)    0           block7a_se_squeeze[0][0]         \n","__________________________________________________________________________________________________\n","block7a_se_reduce (Conv2D)      (None, 1, 1, 28)     18844       block7a_se_reshape[0][0]         \n","__________________________________________________________________________________________________\n","block7a_se_expand (Conv2D)      (None, 1, 1, 672)    19488       block7a_se_reduce[0][0]          \n","__________________________________________________________________________________________________\n","block7a_se_excite (Multiply)    (None, 7, 7, 672)    0           block7a_activation[0][0]         \n","                                                                 block7a_se_expand[0][0]          \n","__________________________________________________________________________________________________\n","block7a_project_conv (Conv2D)   (None, 7, 7, 192)    129024      block7a_se_excite[0][0]          \n","__________________________________________________________________________________________________\n","block7a_project_bn (BatchNormal (None, 7, 7, 192)    768         block7a_project_conv[0][0]       \n","__________________________________________________________________________________________________\n","top_conv (Conv2D)               (None, 7, 7, 1280)   245760      block7a_project_bn[0][0]         \n","__________________________________________________________________________________________________\n","top_bn (BatchNormalization)     (None, 7, 7, 1280)   5120        top_conv[0][0]                   \n","__________________________________________________________________________________________________\n","top_activation (Activation)     (None, 7, 7, 1280)   0           top_bn[0][0]                     \n","__________________________________________________________________________________________________\n","avg_pool (GlobalAveragePooling2 (None, 1280)         0           top_activation[0][0]             \n","__________________________________________________________________________________________________\n","top_dropout (Dropout)           (None, 1280)         0           avg_pool[0][0]                   \n","__________________________________________________________________________________________________\n","predictions (Dense)             (None, 120)          153720      top_dropout[0][0]                \n","==================================================================================================\n","Total params: 1,715,513\n","Trainable params: 1,689,586\n","Non-trainable params: 25,927\n","__________________________________________________________________________________________________\n","Model: \"model_5\"\n","_________________________________________________________________\n","Layer (type)                 Output Shape              Param #   \n","=================================================================\n","input_16 (InputLayer)        [(None, 224, 224, 3)]     0         \n","_________________________________________________________________\n","img_augmentation (Sequential (None, 224, 224, 3)       0         \n","_________________________________________________________________\n","efficientneta0 (Functional)  (None, 120)               1715513   \n","=================================================================\n","Total params: 1,715,513\n","Trainable params: 1,689,586\n","Non-trainable params: 25,927\n","_________________________________________________________________\n","Epoch 1/100\n","93/93 - 80s - loss: 4.9793 - accuracy: 0.0086 - val_loss: 4.8168 - val_accuracy: 0.0064\n","Epoch 2/100\n","93/93 - 68s - loss: 4.8318 - accura
…
