…
\n","\n","accuracy = classifier.evaluate(x_test, y_test)[1]\n","print(f\"Test accuracy: {round(accuracy * 100, 2)}%\")\n"],"execution_count":7,"outputs":[{"output_type":"stream","text":["Model: \"cifar10-classifier\"\n","_________________________________________________________________\n","Layer (type)                 Output Shape              Param #   \n","=================================================================\n","input_5 (InputLayer)         [(None, 32, 32, 3)]       0         \n","_________________________________________________________________\n","cifar10-encoder (Functional) (None, 2048)              23564807  \n","_________________________________________________________________\n","dropout (Dropout)            (None, 2048)              0         \n","_________________________________________________________________\n","dense (Dense)                (None, 512)               1049088   \n","_________________________________________________________________\n","dropout_1 (Dropout)          (None, 512)               0         \n","_________________________________________________________________\n","dense_1 (Dense)              (None, 10)                5130      \n","=================================================================\n","Total params: 24,619,025\n","Trainable params: 24,573,578\n","Non-trainable params: 45,447\n","_________________________________________________________________\n","Epoch 1/50\n","189/189 [==============================] - 45s 118ms/step - loss: 2.2120 - sparse_categorical_accuracy: 0.2131\n","Epoch 2/50\n","189/189 [
…
xt":["resnet.summary()\n","Model: \"resnet50v2\"\n","__________________________________________________________________________________________________\n","Layer (type)                    Output Shape         Param #     Connected to                     \n","==================================================================================================\n","input_17 (InputLayer)           [(None, 32, 32, 3)]  0                                            \n","__________________________________________________________________________________________________\n","conv1_pad (ZeroPadding2D)       (None, 38, 38, 3)    0           input_17[0][0]                   \n","__________________________________________________________________________________________________\n","conv1_conv (Conv2D)             (None, 16, 16, 64)   9472        conv1_pad[0][0]                  \n","__________________________________________________________________________________________________\n","pool1_pad (ZeroPadding2D)       (None, 18, 18, 64)   0           conv1_conv[0][0]                 \n","__________________________________________________________________________________________________\n","pool1_pool (MaxPooling2D)       (None, 8, 8, 64)     0           pool1_pad[0][0]                  \n","__________________________________________________________________________________________________\n","conv2_block1_preact_bn (BatchNo (None, 8, 8, 64)     256         pool1_pool[0][0]                 \n","__________________________________________________________________________________________________\n","conv2_block1_preact_relu (Activ (None, 8, 8, 64)     0           conv2_block1_preact_bn[0][0]     \n","__________________________________________________________________________________________________\n","conv2_block1_1_conv (Conv2D)    (None, 8, 8, 64)     4096        conv2_block1_preact_relu[0][0]   \n","__________________________________________________________________________________________________\n","conv2_block1_1_bn (BatchNormali (None, 8, 8, 64)     256         conv2_block1_1_conv[0][0]        \n","__________________________________________________________________________________________________\n","conv2_block1_1_relu (Activation (None, 8, 8, 64)     0           conv2_block1_1_bn[0][0]          \n","__________________________________________________________________________________________________\n","conv2_block1_2_pad (ZeroPadding (None, 10, 10, 64)   0           conv2_block1_1_relu[0][0]        \n","__________________________________________________________________________________________________\n","conv2_block1_2_conv (Conv2D)    (None, 8, 8, 64)     36864       conv2_block1_2_pad[0][0]         \n","__________________________________________________________________________________________________\n","conv2_block1_2_bn (BatchNormali (None, 8, 8, 64)     256         conv2_block1_2_conv[0][0]        \n","__________________________________________________________________________________________________\n","conv2_block1_2_relu (Activation (None, 8, 8, 64)     0           conv2_block1_2_bn[0][0]          \n","__________________________________________________________________________________________________\n","conv2_block1_0_conv (Conv2D)    (None, 8, 8, 256)    16640       conv2_block1_preact_relu[0][0]   \n","__________________________________________________________________________________________________\n","conv2_block1_3_conv (Conv2D)    (None, 8, 8, 256)    16640       conv2_block1_2_relu[0][0]        \n","__________________________________________________________________________________________________\n","conv2_block1_out (Add)          (None, 8, 8, 256)    0           conv2_block1_0_conv[0][0]        \n","                                                                 conv2_block1_3_conv[0][0]        \n","__________________________________________________________________________________________________\n","conv2_block2_preact_bn (BatchNo (None, 8, 8, 256)    1024        conv2_block1_out[0][0]           \n","__________________________________________________________________________________________________\n","conv2_block2_preact_relu (Activ (None, 8, 8, 256)    0           conv2_block2_preact_bn[0][0]     \n","__________________________________________________________________________________________________\n","conv2_block2_1_conv (Conv2D)    (None, 8, 8, 64)     16384       conv2_block2_preact_relu[0][0]   \n","__________________________________________________________________________________________________\n","conv2_block2_1_bn (BatchNormali (None, 8, 8, 64)     256         conv2_block2_1_conv[0][0]        \n","__________________________________________________________________________________________________\n","conv2_block2_1_relu (Activation (None, 8, 8, 64)     0           conv2_block2_1_bn[0][0]          \n","__________________________________________________________________________________________________\n","conv2_block2_2_pad (ZeroPadding (None, 10, 10, 64)   0           conv2_block2_1_relu[0][0]        \n","__________________________________________________________________________________________________\n","conv2_block2_2_conv (Conv2D)    (None, 8, 8, 64)     36864       conv2_block2_2_pad[0][0]         \n","__________________________________________________________________________________________________\n","conv2_block2_2_bn (BatchNormali (None, 8, 8, 64)     256         conv2_block2_2_conv[0][0]        \n","__________________________________________________________________________________________________\n","conv2_block2_2_relu (Activation (None, 8, 8, 64)     0           conv2_block2_2_bn[0][0]          \n","__________________________________________________________________________________________________\n","conv2_block2_3_conv (Conv2D)    (None, 8, 8, 256)    16640       conv2_block2_2_relu[0][0]        \n","__________________________________________________________________________________________________\n","conv2_block2_out (Add)          (None, 8, 8, 256)    0           conv2_block1_out[0][0]           \n","                                                                 conv2_block2_3_conv[0][0]        \n","__________________________________________________________________________________________________\n","conv2_block3_preact_bn (BatchNo (None, 8, 8, 256)    1024        conv2_block2_out[0][0]           \n","__________________________________________________________________________________________________\n","conv2_block3_preact_relu (Activ (None, 8, 8, 256)    0           conv2_block3_preact_bn[0][0]     \n","__________________________________________________________________________________________________\n","conv2_block3_1_conv (Conv2D)    (None, 8, 8, 64)     16384       conv2_block3_preact_relu[0][0]   \n","__________________________________________________________________________________________________\n","conv2_block3_1_bn (BatchNormali (None, 8, 8, 64)     256         conv2_block3_1_conv[0][0]        \n","__________________________________________________________________________________________________\n","conv2_block3_1_relu (Activation (None, 8, 8, 64)     0           conv2_block3_1_bn[0][0]          \n","__________________________________________________________________________________________________\n","conv2_block3_2_pad (ZeroPadding (None, 10, 10, 64)   0           conv2_block3_1_relu[0][0]        \n","__________________________________________________________________________________________________\n","conv2_block3_2_conv (Conv2D)    (None, 4, 4, 64)     36864       conv2_block3_2_pad[0][0]         \n","__________________________________________________________________________________________________\n","conv2_block3_2_bn (BatchNormali (None, 4, 4, 64)     256         conv2_block3_2_conv[0][0]        \n","__________________________________________________________________________________________________\n","conv2_block3_2_relu (Activation (None, 4, 4, 64)     0           conv2_block3_2_bn[0][0]          \n","__________________________________________________________________________________________________\n","max_pooling2d_18 (MaxPooling2D) (None, 4, 4, 256)    0           conv2_block2_out[0][0]           \n","__________________________________________________________________________________________________\n","conv2_block3_3_conv (Conv2D)    (None, 4, 4, 256)    16640       conv2_block3_2_relu[0][0]        \n","__________________________________________________________________________________________________\n","conv2_block3_out (Add)          (None, 4, 4, 256)    0           max_pooling2d_18[0][0]           \n","                                                                 conv2_block3_3_conv[0][0]        \n","__________________________________________________________________________________________________\n","conv3_block1_preact_bn (BatchNo (None, 4, 4, 256)    1024        conv2_block3_out[0][0]           \n","__________________________________________________________________________________________________\n","conv3_block1_preact_relu (Activ (None, 4, 4, 256)    0           conv3_block1_preact_bn[0][0]     \n","__________________________________________________________________________________________________\n","conv3_block1_1_conv (Conv2D)    (None, 4, 4, 128)    32768       conv3_block1_preact_relu[0][0]   \n","__________________________________________________________________________________________________\n","conv3_block1_1_bn (BatchNormali (None, 4, 4, 128)    512         conv3_block1_1_conv[0][0]        \n","__________________________________________________________________________________________________\n","conv3_block1_1_relu (Activation (None, 4, 4, 128)    0           conv3_block1_1_bn[0][0]          \n","__________________________________________________________________________________________________\n","conv3_block1_2_pad (ZeroPadding (None, 6, 6, 128)    0           conv3_block1_1_relu[0][0]        \n","__________________________________________________________________________________________________\n","conv3_block1_2_conv (Conv2D)    (None, 4, 4, 128)    147456      conv3_block1_2_pad[0][0]         \n","__________________________________________________________________________________________________\n","conv3_block1_2_bn (BatchNormali (None, 4, 4, 128)    512         conv3_block1_2_conv[0][0]        \n","__________________________________________________________________________________________________\n","conv3_block1_2_relu (Activation (None, 4, 4, 128)    0           conv3_block1_2_bn[0][0]          \n","__________________________________________________________________________________________________\n","conv3_block1_0_conv (Conv2D)    (None, 4, 4, 512)    131584      conv3_block1_preact_relu[0][0]   \n","__________________________________________________________________________________________________\n","conv3_block1_3_conv (Conv2D)    (None, 4, 4, 512)    66048       conv3_block1_2_relu[0][0]        \n","__________________________________________________________________________________________________\n","conv3_block1_out (Add)          (None, 4, 4, 512)    0           conv3_block1_0_conv[0][0]        \n","                                                                 conv3_block1_3_conv[0][0]        \n","__________________________________________________________________________________________________\n","conv3_block2_preact_bn (BatchNo (None, 4, 4, 512)    2048        conv3_block1_out[0][0]           \n","__________________________________________________________________________________________________\n","conv3_block2_preact_relu (Activ (None, 4, 4, 512)    0           conv3_block2_preact_bn[0][0]     \n","__________________________________________________________________________________________________\n","conv3_block2_1_conv (Conv2D)    (None, 4, 4, 128)    65536       conv3_block2_preact_relu[0][0]   \n","__________________________________________________________________________________________________\n","conv3_block2_1_bn (BatchNormali (None, 4, 4, 128)    512         conv3_block2_1_conv[0][0]        \n","__________________________________________________________________________________________________\n","conv3_block2_1_relu (Activation (None, 4, 4, 128)    0           conv3_block2_1_bn[0][0]          \n","__________________________________________________________________________________________________\n","conv3_block2_2_pad (ZeroPadding (None, 6, 6, 128)    0           conv3_block2_1_relu[0][0]        \n","__________________________________________________________________________________________________\n","conv3_block2_2_conv (Conv2D)    (None, 4, 4, 128)    147456      conv3_block2_2_pad[0][0]         \n","__________________________________________________________________________________________________\n","conv3_block2_2_bn (BatchNormali (None, 4, 4, 128)    512         conv3_block2_2_conv[0][0]        \n","__________________________________________________________________________________________________\n","conv3_block2_2_relu (Activation (None, 4, 4, 128)    0           conv3_block2_2_bn[0][0]          \n","__________________________________________________________________________________________________\n","conv3_block2_3_conv (Conv2D)    (None, 4, 4, 512)    66048       conv3_block2_2_relu[0][0]        \n","__________________________________________________________________________________________________\n","conv3_block2_out (Add)          (None, 4, 4, 512)    0           conv3_block1_out[0][0]           \n","                                                                 conv3_block2_3_conv[0][0]        \n","__________________________________________________________________________________________________\n","conv3_block3_preact_bn (BatchNo (None, 4, 4, 512)    2048        conv3_block2_out[0][0]           \n","__________________________________________________________________________________________________\n","conv3_block3_preact_relu (Activ (None, 4, 4, 512)    0           conv3_block3_preact_bn[0][0]     \n","__________________________________________________________________________________________________\n","conv3_block3_1_conv (Conv2D)    (None, 4, 4, 128)    65536       conv3_block3_preact_relu[0][0]   \n","__________________________________________________________________________________________________\n","conv3_block3_1_bn (BatchNormali (None, 4, 4, 128)    512         conv3_block3_1_conv[0][0]        \n","__________________________________________________________________________________________________\n","conv3_block3_1_relu (Activation (None, 4, 4, 128)    0           conv3_block3_1_bn[0][0]          \n","__________________________________________________________________________________________________\n","conv3_block3_2_pad (ZeroPadding (None, 6, 6, 128)    0           conv3_block3_1_relu[0][0]        \n","__________________________________________________________________________________________________\n","conv3_block3_2_conv (Conv2D)    (None, 4, 4, 128)    147456      conv3_block3_2_pad[0][0]         \n","__________________________________________________________________________________________________\n","conv3_block3_2_bn (BatchNormali (None, 4, 4, 128)    512         conv3_block3_2_conv[0][0]        \n","__________________________________________________________________________________________________\n","conv3_block3_2_relu (Activation (None, 4, 4, 128)    0           conv3_block3_2_bn[0][0]          \n","__________________________________________________________________________________________________\n","conv3_block3_3_conv (Conv2D)    (None, 4, 4, 512)    66048       conv3_block3_2_relu[0][0]        \n","__________________________________________________________________________________________________\n","conv3_block3_out (Add)          (None, 4, 4, 512)    0           conv3_block2_out[0][0]           \n","                                                                 conv3_block3_3_conv[0][0]        \n","__________________________________________________________________________________________________\n","conv3_block4_preact_bn (BatchNo (None, 4, 4, 512)    2048        conv3_block3_out[0][0]           \n","__________________________________________________________________________________________________\n","conv3_block4_preact_relu (Activ (None, 4, 4, 512)    0           conv3_block4_preact_bn[0][0]     \n","__________________________________________________________________________________________________\n","conv3_block4_1_conv (Conv2D)    (None, 4, 4, 128)    65536       conv3_block4_preact_relu[0][0]   \n","__________________________________________________________________________________________________\n","conv3_block4_1_bn (BatchNormali (None, 4, 4, 128)    512         conv3_block4_1_conv[0][0]        \n","__________________________________________________________________________________________________\n","conv3_block4_1_relu (Activation (None, 4, 4, 128)    0           conv3_block4_1_bn[0][0]          \n","__________________________________________________________________________________________________\n","conv3_block4_2_pad (ZeroPadding (None, 6, 6, 128)    0           conv3_block4_1_relu[0][0]        \n","__________________________________________________________________________________________________\n","conv3_block4_2_conv (Conv2D)    (None, 2, 2, 128)    147456      conv3_block4_2_pad[0][0]         \n","__________________________________________________________________________________________________\n","conv3_block4_2_bn (BatchNormali (None, 2, 2, 128)    512         conv3_block4_2_conv[0][0]        \n","__________________________________________________________________________________________________\n","conv3_block4_2_relu (Activation (None, 2, 2, 128)    0           conv3_block4_2_bn[0][0]          \n","__________________________________________________________________________________________________\n","max_pooling2d_19 (MaxPooling2D) (None, 2, 2, 512)    0           conv3_block3_out[0][0]           \n","__________________________________________________________________________________________________\n","conv3_block4_3_conv (Conv2D)    (None, 2, 2, 512)    66048       conv3_block4_2_relu[0][0]        \n","__________________________________________________________________________________________________\n","conv3_block4_out (Add)          (None, 2, 2, 512)    0           max_pooling2d_19[0][0]           \n","                                                                 conv3_block4_3_conv[0][0]        \n","__________________________________________________________________________________________________\n","conv4_block1_preact_bn (BatchNo (None, 2, 2, 512)    2048        conv3_block4_out[0][0]           \n","__________________________________________________________________________________________________\n","conv4_block1_preact_relu (Activ (None, 2, 2, 512)    0           conv4_block1_preact_bn[0][0]     \n","__________________________________________________________________________________________________\n","conv4_block1_1_conv (Conv2D)    (None, 2, 2, 256)    131072      conv4_block1_preact_relu[0][0]   \n","__________________________________________________________________________________________________\n","conv4_block1_1_bn (BatchNormali (None, 2, 2, 256)    1024        conv4_block1_1_conv[0][0]        \n","__________________________________________________________________________________________________\n","conv4_block1_1_relu (Activation (None, 2, 2, 256)    0           conv4_block1_1_bn[0][0]          \n","__________________________________________________________________________________________________\n","conv4_block1_2_pad (ZeroPadding (None, 4, 4, 256)    0           conv4_block1_1_relu[0][0]        \n","__________________________________________________________________________________________________\n","conv4_block1_2_conv (Conv2D)    (None, 2, 2, 256)    589824      conv4_block1_2_pad[0][0]         \n","__________________________________________________________________________________________________\n","conv4_block1_2_bn (BatchNormali (None, 2, 2, 256)    1024        conv4_block1_2_conv[0][0]        \n","__________________________________________________________________________________________________\n","conv4_block1_2_relu (Activation (None, 2, 2, 256)    0           conv4_block1_2_bn[0][0]          \n","__________________________________________________________________________________________________\n","conv4_block1_0_conv (Conv2D)    (None, 2, 2, 1024)   525312      conv4_block1_preact_relu[0][0]   \n","__________________________________________________________________________________________________\n","conv4_block1_3_conv (Conv2D)    (None, 2, 2, 1024)   263168      conv4_block1_2_relu[0][0]        \n","__________________________________________________________________________________________________\n","conv4_block1_out (Add)          (None, 2, 2, 1024)   0           conv4_block1_0_conv[0][0]        \n","                                                                 conv4_block1_3_conv[0][0]        \n","__________________________________________________________________________________________________\n","conv4_block2_preact_bn (BatchNo (None, 2, 2, 1024)   4096        conv4_block1_out[0][0]           \n","__________________________________________________________________________________________________\n","conv4_block2_preact_relu (Activ (None, 2, 2, 1024)   0           conv4_block2_preact_bn[0][0]     \n","__________________________________________________________________________________________________\n","conv4_block2_1_conv (Conv2D)    (None, 2, 2, 256)    262144      conv4_block2_preact_relu[0][0]   \n","__________________________________________________________________________________________________\n","conv4_block2_1_bn (BatchNormali (None, 2, 2, 256)    1024        conv4_block2_1_conv[0][0]        \n","__________________________________________________________________________________________________\n","conv4_block2_1_relu (Activation (None, 2, 2, 256)    0           conv4_block2_1_bn[0][0]          \n","__________________________________________________________________________________________________\n","conv4_block2_2_pad (ZeroPadding (None, 4, 4, 256)    0           conv4_block2_1_relu[0][0]        \n","__________________________________________________________________________________________________\n","conv4_block2_2_conv (Conv2D)    (None, 2, 2, 256)    589824      conv4_block2_2_pad[0][0]         \n","__________________________________________________________________________________________________\n","conv4_block2_2_bn (BatchNormali (None, 2, 2, 256)    1024        conv4_block2_2_conv[0][0]        \n","__________________________________________________________________________________________________\n","conv4_block2_2_relu (Activation (None, 2, 2, 256)    0           conv4_block2_2_bn[0][0]          \n","__________________________________________________________________________________________________\n","conv4_block2_3_conv (Conv2D)    (None, 2, 2, 1024)   263168      conv4_block2_2_relu[0][0]        \n","__________________________________________________________________________________________________\n","conv4_block2_out (Add)          (None, 2, 2, 1024)   0           conv4_block1_out[0][0]           \n","                                                                 conv4_block2_3_conv[0][0]        \n","__________________________________________________________________________________________________\n","conv4_block3_preact_bn (BatchNo (None, 2, 2, 1024)   4096        conv4_block2_out[0][0]           \n","__________________________________________________________________________________________________\n","conv4_block3_preact_relu (Activ (None, 2, 2, 1024)   0           conv4_block3_preact_bn[0][0]     \n","__________________________________________________________________________________________________\n","conv4_block3_1_conv (Conv2D)    (None, 2, 2, 256)    262144      conv4_block3_preact_relu[0][0]   \n","__________________________________________________________________________________________________\n","conv4_block3_1_bn (BatchNormali (None, 2, 2, 256)    1024        conv4_block3_1_conv[0][0]        \n","__________________________________________________________________________________________________\n","conv4_block3_1_relu (Activation (None, 2, 2, 256)    0           conv4_block3_1_bn[0][0]          \n","__________________________________________________________________________________________________\n","conv4_block3_2_pad (ZeroPadding (None, 4, 4, 256)    0           conv4_block3_1_relu[0][0]        \n","__________________________________________________________________________________________________\n","conv4_block3_2_conv (Conv2D)    (None, 2, 2, 256)    589824      conv4_block3_2_pad[0][0]         \n","__________________________________________________________________________________________________\n","conv4_block3_2_bn (BatchNormali (None, 2, 2, 256)    1024        conv4_block3_2_conv[0][0]        \n","__________________________________________________________________________________________________\n","conv4_block3_2_relu (Activation (None, 2, 2, 256)    0           conv4_block3_2_bn[0][0]          \n","__________________________________________________________________________________________________\n","conv4_block3_3_conv (Conv2D)    (None, 2, 2, 1024)   263168      conv4_block3_2_relu[0][0]        \n","__________________________________________________________________________________________________\n","conv4_block3_out (Add)          (None, 2, 2, 1024)   0           conv4_block2_out[0][0]           \n","                                                                 conv4_block3_3_conv[0][0]        \n","__________________________________________________________________________________________________\n","conv4_block4_preact_bn (BatchNo (None, 2, 2, 1024)   4096        conv4_block3_out[0][0]           \n","__________________________________________________________________________________________________\n","conv4_block4_preact_relu (Activ (None, 2, 2, 1024)   0           conv4_block4_preact_bn[0][0]     \n","__________________________________________________________________________________________________\n","conv4_block4_1_conv (Conv2D)    (None, 2, 2, 256)    262144      conv4_block4_preact_relu[0][0]   \n","__________________________________________________________________________________________________\n","conv4_block4_1_bn (BatchNormali (None, 2, 2, 256)    1024        conv4_block4_1_conv[0][0]        \n","__________________________________________________________________________________________________\n","conv4_block4_1_relu (Activation (None, 2, 2, 256)    0           conv4_block4_1_bn[0][0]          \n","__________________________________________________________________________________________________\n","conv4_block4_2_pad (ZeroPadding (None, 4, 4, 256)    0           conv4_block4_1_relu[0][0]        \n","__________________________________________________________________________________________________\n","conv4_block4_2_conv (Conv2D)    (None, 2, 2, 256)    589824      conv4_block4_2_pad[0][0]         \n","__________________________________________________________________________________________________\n","conv4_block4_2_bn (BatchNormali (None, 2, 2, 256)    1024        conv4_block4_2_conv[0][0]        \n","__________________________________________________________________________________________________\n","conv4_block4_2_relu (Activation (None, 2, 2, 256)    0           conv4_block4_2_bn[0][0]          \n","__________________________________________________________________________________________________\n","conv4_block4_3_conv (Conv2D)    (None, 2, 2, 1024)   263168      conv4_block4_2_relu[0][0]        \n","__________________________________________________________________________________________________\n","conv4_block4_out (Add)          (None, 2, 2, 1024)   0           conv4_block3_out[0][0]           \n","                                                                 conv4_block4_3_conv[0][0]        \n","__________________________________________________________________________________________________\n","conv4_block5_preact_bn (BatchNo (None, 2, 2, 1024)   4096        conv4_block4_out[0][0]           \n","__________________________________________________________________________________________________\n","conv4_block5_preact_relu (Activ (None, 2, 2, 1024)   0           conv4_block5_preact_bn[0][0]     \n","__________________________________________________________________________________________________\n","conv4_block5_1_conv (Conv2D)    (None, 2, 2, 256)    262144      conv4_block5_preact_relu[0][0]   \n","__________________________________________________________________________________________________\n","conv4_block5_1_bn (BatchNormali (None, 2, 2, 256)    1024        conv4_block5_1_conv[0][0]        \n","__________________________________________________________________________________________________\n","conv4_block5_1_relu (Activation (None, 2, 2, 256)    0           conv4_block5_1_bn[0][0]          \n","__________________________________________________________________________________________________\n","conv4_block5_2_pad (ZeroPadding (None, 4, 4, 256)    0           conv4_block5_1_relu[0][0]        \n","__________________________________________________________________________________________________\n","conv4_block5_2_conv (Conv2D)    (None, 2, 2, 256)    589824      conv4_block5_2_pad[0][0]         \n","__________________________________________________________________________________________________\n","conv4_block5_2_bn (BatchNormali (None, 2, 2, 256)    1024        conv4_block5_2_conv[0][0]        \n","__________________________________________________________________________________________________\n","conv4_block5_2_relu (Activation (None, 2, 2, 256)    0           conv4_block5_2_bn[0][0]          \n","__________________________________________________________________________________________________\n","conv4_block5_3_conv (Conv2D)    (None, 2, 2, 1024)   263168      conv4_block5_2_relu[0][0]        \n","__________________________________________________________________________________________________\n","conv4_block5_out (Add)          (None, 2, 2, 1024)   0           conv4_block4_out[0][0]           \n","                                                                 conv4_block5_3_conv[0][0]        \n","__________________________________________________________________________________________________\n","conv4_block6_preact_bn (BatchNo (None, 2, 2, 1024)   4096        conv4_block5_out[0][0]           \n","__________________________________________________________________________________________________\n","conv4_block6_preact_relu (Activ (None, 2, 2, 1024)   0           conv4_block6_preact_bn[0][0]     \n","__________________________________________________________________________________________________\n","conv4_block6_1_conv (Conv2D)    (None, 2, 2, 256)    262144      conv4_block6_preact_relu[0][0]   \n","__________________________________________________________________________________________________\n","conv4_block6_1_bn (BatchNormali (None, 2, 2, 256)    1024        conv4_block6_1_conv[0][0]        \n","__________________________________________________________________________________________________\n","conv4_block6_1_relu (Activation (None, 2, 2, 256)    0           conv4_block6_1_bn[0][0]          \n","__________________________________________________________________________________________________\n","conv4_block6_2_pad (ZeroPadding (None, 4, 4, 256)    0           conv4_block6_1_relu[0][0]        \n","__________________________________________________________________________________________________\n","conv4_block6_2_conv (Conv2D)    (None, 1, 1, 256)    589824      conv4_block6_2_pad[0][0]         \n","__________________________________________________________________________________________________\n","conv4_block6_2_bn (BatchNormali (None, 1, 1, 256)    1024        conv4_block6_2_conv[0][0]        \n","__________________________________________________________________________________________________\n","conv4_block6_2_relu (Activation (None, 1, 1, 256)    0           conv4_block6_2_bn[0][0]          \n","__________________________________________________________________________________________________\n","max_pooling2d_20 (MaxPooling2D) (None, 1, 1, 1024)   0           conv4_block5_out[0][0]           \n","__________________________________________________________________________________________________\n","conv4_block6_3_conv (Conv2D)    (None, 1, 1, 1024)   263168      conv4_block6_2_relu[0][0]        \n","__________________________________________________________________________________________________\n","conv4_block6_out (Add)          (None, 1, 1, 1024)   0           max_pooling2d_20[0][0]           \n","                                                                 conv4_block6_3_conv[0][0]        \n","__________________________________________________________________________________________________\n","conv5_block1_preact_bn (BatchNo (None, 1, 1, 1024)   4096        conv4_block6_out[0][0]           \n","__________________________________________________________________________________________________\n","conv5_block1_preact_relu (Activ (None, 1, 1, 1024)   0           conv5_block1_preact_bn[0][0]     \n","__________________________________________________________________________________________________\n","conv5_block1_1_conv (Conv2D)    (None, 1, 1, 512)    524288      conv5_block1_preact_relu[0][0]   \n","__________________________________________________________________________________________________\n","conv5_block1_1_bn (BatchNormali (None, 1, 1, 512)    2048        conv5_block1_1_conv[0][0]        \n","__________________________________________________________________________________________________\n","conv5_block1_1_relu (Activation (None, 1, 1, 512)    0           conv5_block1_1_bn[0][0]          \n","__________________________________________________________________________________________________\n","conv5_block1_2_pad (ZeroPadding (None, 3, 3, 512)    0           conv5_block1_1_relu[0][0]        \n","__________________________________________________________________________________________________\n","conv5_block1_2_conv (Conv2D)    (None, 1, 1, 512)    2359296     conv5_block1_2_pad[0][0]         \n","__________________________________________________________________________________________________\n","conv5_block1_2_bn (BatchNormali (None, 1, 1, 512)    2048        conv5_block1_2_conv[0][0]        \n","__________________________________________________________________________________________________\n","conv5_block1_2_relu (Activation (None, 1, 1, 512)    0           conv5_block1_2_bn[0][0]          \n","__________________________________________________________________________________________________\n","conv5_block1_0_conv (Conv2D)    (None, 1, 1, 2048)   2099200     conv5_block1_preact_relu[0][0]   \n","__________________________________________________________________________________________________\n","conv5_block1_3_conv (Conv2D)    (None, 1, 1, 2048)   1050624     conv5_block1_2_relu[0][0]        \n","__________________________________________________________________________________________________\n","conv5_block1_out (Add)          (None, 1, 1, 2048)   0           conv5_block1_0_conv[0][0]        \n","                                                                 conv5_block1_3_conv[0][0]        \n","__________________________________________________________________________________________________\n","conv5_block2_preact_bn (BatchNo (None, 1, 1, 2048)   8192        conv5_block1_out[0][0]           \n","__________________________________________________________________________________________________\n","conv5_block2_preact_relu (Activ (None, 1, 1, 2048)   0           conv5_block2_preact_bn[0][0]     \n","__________________________________________________________________________________________________\n","conv5_block2_1_conv (Conv2D)    (None, 1, 1, 512)    1048576     conv5_block2_preact_relu[0][0]   \n","__________________________________________________________________________________________________\n","conv5_block2_1_bn (BatchNormali (None, 1, 1, 512)    2048        conv5_block2_1_conv[0][0]        \n","__________________________________________________________________________________________________\n","conv5_block2_1_relu (Activation (None, 1, 1, 512)    0           conv5_block2_1_bn[0][0]          \n","__________________________________________________________________________________________________\n","conv5_block2_2_pad (ZeroPadding (None, 3, 3, 512)    0           conv5_block2_1_relu[0][0]        \n","__________________________________________________________________________________________________\n","conv5_block2_2_conv (Conv2D)    (None, 1, 1, 512)    2359296     conv5_block2_2_pad[0][0]         \n","__________________________________________________________________________________________________\n","conv5_block2_2_bn (BatchNormali (None, 1, 1, 512)    2048        conv5_block2_2_conv[0][0]        \n","__________________________________________________________________________________________________\n","conv5_block2_2_relu (Activation (None, 1, 1, 512)    0           conv5_block2_2_bn[0][0]          \n","__________________________________________________________________________________________________\n","conv5_block2_3_conv (Conv2D)    (None, 1, 1, 2048)   1050624     conv5_block2_2_relu[0][0]        \n","__________________________________________________________________________________________________\n","conv5_block2_out (Add)          (None, 1, 1, 2048)   0           conv5_block1_out[0][0]           \n","                                                                 conv5_block2_3_conv[0][0]        \n","__________________________________________________________________________________________________\n","conv5_block3_preact_bn (BatchNo (None, 1, 1, 2048)   8192        conv5_block2_out[0][0]           \n","__________________________________________________________________________________________________\n","conv5_block3_preact_relu (Activ (None, 1, 1, 2048)   0           conv5_block3_preact_bn[0][0]     \n","__________________________________________________________________________________________________\n","conv5_block3_1_conv (Conv2D)    (None, 1, 1, 512)    1048576     conv5_block3_preact_relu[0][0]   \n","__________________________________________________________________________________________________\n","conv5_block3_1_bn (BatchNormali (None, 1, 1, 512)    2048        conv5_block3_1_conv[0][0]        \n","__________________________________________________________________________________________________\n","conv5_block3_1_relu (Activation (None, 1, 1, 512)    0           conv5_block3_1_bn[0][0]          \n","__________________________________________________________________________________________________\n","conv5_block3_2_pad (ZeroPadding (None, 3, 3, 512)    0           conv5_block3_1_relu[0][0]        \n","__________________________________________________________________________________________________\n","conv5_block3_2_conv (Conv2D)    (None, 1, 1, 512)    2359296     conv5_block3_2_pad[0][0]         \n","__________________________________________________________________________________________________\n","conv5_block3_2_bn (BatchNormali (None, 1, 1, 512)    2048        conv5_block3_2_conv[0][0]        \n","__________________________________________________________________________________________________\n","conv5_block3_2_relu (Activation (None, 1, 1, 512)    0           conv5_block3_2_bn[0][0]          \n","__________________________________________________________________________________________________\n","conv5_block3_3_conv (Conv2D)    (None, 1, 1, 2048)   1050624     conv5_block3_2_relu[0][0]        \n","__________________________________________________________________________________________________\n","conv5_block3_out (Add)          (None, 1, 1, 2048)   0           conv5_block2_out[0][0]           \n","                                                                 conv5_block3_3_conv[0][0]        \n","__________________________________________________________________________________________________\n","post_bn (BatchNormalization)    (None, 1, 1, 2048)   8192        conv5_block3_out[0][0]           \n","__________________________________________________________________________________________________\n","post_relu (Activation)          (None, 1, 1, 2048)   0           post_bn[0][0]                    \n","==================================================================================================\n","Total params: 23,564,800\n","Trainable params: 23,519,360\n","Non-trainable params: 45,440\n","__________________________________________________________________________________________________\n","__init__: similarity: 0.65\n","Pruno2D.build: input_shape: (None, 1, 1, 2048)\n","Pruno2D.build: self.fmap_shape: (1, 1)\n","Model: \"cifar10-classifier\"\n","_________________________________________________________________\n","Layer (type)                 Output Shape              Param #   \n","=================================================================\n","input_19 (InputLayer)        [(None, 32, 32, 3)]       0         \n","_________________________________________________________________\n","cifar10-encoder (Functional) (None, 2048)              23564807  \n","_________________________________________________________________\n","dropout_4 (Dropout)          (None, 2048)              0         \n","_________________________________________________________________\n","dense_5 (Dense)              (None, 512)               1049088   \n","_________________________________________________________________\n","dropout_5 (Dropout)          (None, 512)               0         \n","_________________________________________________________________\n","dense_6 (Dense)              (None, 10)                5130      \n","=================================================================\n","Total params: 24,619,025\n","Trainable params: 24,573,578\n","Non-trainable params: 45,447\n","_________________________________________________________________\n","Epoch 1/50\n","Pruno2D.call: type inputs.shape: <class 'tensorflow.python.framework.tensor_shape.TensorShape'>\n","Pruno2D.call: inputs.shape: (None, 1, 1
…
