…
dcnn\")\n","    return model\n","\n","\n","# Build model.\n","model = get_model(width=128, height=128, depth=64)\n","model.summary()"],"execution_count":84,"outputs":[{"output_type":"stream","text":["Model: \"3dcnn\"\n","_________________________________________________________________\n","Layer (type)                 Output Shape              Param #   \n","=================================================================\n","input_14 (InputLayer)        [(None, 128, 128, 64, 1)] 0         \n","_________________________________________________________________\n","conv3d_52 (Conv3D)           (None, 126, 126, 62, 64)  1792      \n","_________________________________________________________________\n","max_pooling3d_52 (MaxPooling (None, 63, 63, 31, 64)    0         \n","_________________________________________________________________\n","batch_normalization_52 (Batc (None, 63, 63, 31, 64)    256       \n","_________________________________________________________________\n","conv3d_53 (Conv3D)           (None, 61, 61, 29, 64)    110656    \n","_________________________________________________________________\n","max_pooling3d_53 (MaxPooling (None, 30, 30, 14, 64)    0         \n","_________________________________________________________________\n","batch_normalization_53 (Batc (None, 30, 30, 14, 64)    256       \n","_________________________________________________________________\n","conv3d_54 (Conv3D)           (None, 28, 28, 12, 128)   221312    \n","_________________________________________________________________\n","max_pooling3d_54 (MaxPooling (None, 14, 14, 6, 128)    0         \n","_________________________________________________________________\n","batch_normalization_54 (Batc (None, 14, 14, 6, 128)    512       \n","_________________________________________________________________\n","conv3d_55 (Conv3D)           (None, 12, 12, 4, 256)    884992    \n","_________________________________________________________________\n","max_pooling3d_55 (MaxPooling (None, 6, 6, 2, 256)      0         \n","_________________________________________________________________\n","batch_normalization_55 (Batc (None, 6, 6, 2, 256)      1024      \n","_________________________________________________________________\n","global_average_pooling3d_13  (None, 256)               0         \n","_________________________________________________________________\n","dense_26 (Dense)             (None, 512)               131584    \n","_________________________________________________________________\n","dropout_13 (Dropout)         (None, 512)               0         \n","_________________________________________________________________\n","dense_27 (Dense)             (None, 1)                 513       \n","=================================================================\n","Total params: 1,352,897\n","Trainable params: 1,351,873\n","Non-trainable params: 1,024\n","_________________________________________________________________\n"],"name":"stdout"}]},{"cell_type":"markdown","metadata":{"id":"yUPur3DaINuf"},"source":["## Train model"]},{"cell_type":"code","metadata":{"id":"pi84_nL35u1w"
…
()"],"execution_count":98,"outputs":[{"output_type":"stream","text":["__init__: similarity: 0.65\n","Pruno3D.build: input_shape: (None, 6, 6, 2, 256)\n","Pruno3D.build: self.fmap_shape: (6, 6, 2)\n","Model: \"3dcnn\"\n","_________________________________________________________________\n","Layer (type)                 Output Shape              Param #   \n","=================================================================\n","input_19 (InputLayer)        [(None, 128, 128, 64, 1)] 0         \n","_________________________________________________________________\n","conv3d_72 (Conv3D)           (None, 126, 126, 62, 64)  1792      \n","_________________________________________________________________\n","max_pooling3d_72 (MaxPooling (None, 63, 63, 31, 64)    0         \n","_________________________________________________________________\n","batch_normalization_71 (Batc (None, 63, 63, 31, 64)    256       \n","_________________________________________________________________\n","spatial_dropout3d_1 (Spatial (None, 63, 63, 31, 64)    0         \n","_________________________________________________________________\n","conv3d_73 (Conv3D)           (None, 61, 61, 29, 64)    110656    \n","_________________________________________________________________\n","max_pooling3d_73 (MaxPooling (None, 30, 30, 14, 64)    0         \n","_________________________________________________________________\n","conv3d_74 (Conv3D)           (None, 28, 28, 12, 128)   221312    \n","_________________________________________________________________\n","max_pooling3d_74 (MaxPooling (None, 14, 14, 6, 128)    0         \n","_________________________________________________________________\n","batch_normalization_72 (Batc (None, 14, 14, 6, 128)    512       \n","_________________________________________________________________\n","conv3d_75 (Conv3D)           (None, 12, 12, 4, 256)    884992    \n","_________________________________________________________________\n","max_pooling3d_75 (MaxPooling (None, 6, 6, 2, 256)      0         \n","_________________________________________________________________\n","batch_normalization_73 (Batc (None, 6, 6, 2, 256)      1024      \n","_________________________________________________________________\n","pruno3d_8 (Pruno3D)          (None, 6, 6, 2, 256)      0         \n","_________________________________________________________________\n","global_average_pooling3d_18  (None, 256)               0         \n","_________________________________________________________________\n","dense_36 (Dense)             (None, 512)               131584    \n","_________________________________________________________________\n","dropout_18 (Dropout)         (None, 512)               0         \n","_________________________________________________________________\n","dense_37 (Dense)             (None, 1)                 513       \n","=================================================================\n","Total params: 1,352,641\n","Trainable params: 1,351,745\n","Non-trainable params: 896\n","_________________________________________________________________\n"],"name":"stdout"}]},{"cell_type":"code","metadata":{"colab":{"base_uri":"https://localhost:8080/"},"id":"4A0zc25Fx-Gw","executionInfo":{"status":"ok","timestam
…
