…
Pruno2D.build: input_shape: (None, 256, 256, 64)\n","Pruno2D.build: self.fmap_shape: (256, 256)\n","__init__: similarity: 0.65\n","Pruno2D.build: input_shape: (None, 256, 256, 64)\n","Pruno2D.build: self.fmap_shape: (256, 256)\n","Model: \"generator_F\"\n","__________________________________________________________________________________________________\n","Layer (type)                    Output Shape         Param #     Connected to                     \n","==================================================================================================\n","generator_F_img_input (InputLay [(None, 256, 256, 3) 0                                            \n","__________________________________________________________________________________________________\n","reflection_padding2d_100 (Refle (None, 262, 262, 3)  0           generator_F_img_input[0][0]      \n","__________________________________________________________________________________________________\n","conv2d_130 (Conv2D)             (None, 256, 256, 64) 9408        reflection_padding2d_100[0][0]   \n","__________________________________________________________________________________________________\n","instance_normalization_127 (Ins (None, 256, 256, 64) 128         conv2d_130[0][0]                 \n","__________________________________________________________________________________________________\n","activation_75 (Activation)      (None, 256, 256, 64) 0           instance_normalization_127[0][0] \n","__________________________________________________________________________________________________\n","conv2d_131 (Conv2D)             (None, 128, 128, 128 73728       activation_75[0][0]              \n","__________________________________________________________________________________________________\n","instance_normalization_128 (Ins (None, 128, 128, 128 256         conv2d_131[0][0]                 \n","__________________________________________________________________________________________________\n","activation_76 (Activation)      (None, 128, 128, 128 0           instance_normalization_128[0][0] \n","__________________________________________________________________________________________________\n","conv2d_132 (Conv2D)             (None, 64, 64, 256)  294912      activation_76[0][0]              \n","__________________________________________________________________________________________________\n","instance_normalization_129 (Ins (None, 64, 64, 256)  512         conv2d_132[0][0]                 \n","__________________________________________________________________________________________________\n","activation_77 (Activation)      (None, 64, 64, 256)  0           instance_normalization_129[0][0] \n","__________________________________________________________________________________________________\n","reflection_padding2d_101 (Refle (None, 66, 66, 256)  0           activation_77[0][0]              \n","__________________________________________________________________________________________________\n","conv2d_133 (Conv2D)             (None, 64, 64, 256)  589824      reflection_padding2d_101[0][0]   \n","__________________________________________________________________________________________________\n","instance_normalization_130 (Ins (None, 64, 64, 256)  512         conv2d_133[0][0]                 \n","__________________________________________________________________________________________________\n","activation_78 (Activation)      (None, 64, 64, 256)  0           instance_normalization_130[0][0] \n","__________________________________________________________________________________________________\n","reflection_padding2d_102 (Refle (None, 66, 66, 256)  0           activation_78[0][0]              \n","__________________________________________________________________________________________________\n","conv2d_134 (Conv2D)             (None, 64, 64, 256)  589824      reflection_padding2d_102[0][0]   \n","__________________________________________________________________________________________________\n","instance_normalization_131 (Ins (None, 64, 64, 256)  512         conv2d_134[0][0]                 \n","__________________________________________________________________________________________________\n","add_45 (Add)                    (None, 64, 64, 256)  0           activation_77[0][0]              \n","                                                                 instance_normalization_131[0][0] \n","__________________________________________________________________________________________________\n","reflection_padding2d_103 (Refle (None, 66, 66, 256)  0           add_45[0][0]                     \n","__________________________________________________________________________________________________\n","conv2d_135 (Conv2D)             (None, 64, 64, 256)  589824      reflection_padding2d_103[0][0]   \n","__________________________________________________________________________________________________\n","instance_normalization_132 (Ins (None, 64, 64, 256)  512         conv2d_135[0][0]                 \n","__________________________________________________________________________________________________\n","activation_79 (Activation)      (None, 64, 64, 256)  0           instance_normalization_132[0][0] \n","__________________________________________________________________________________________________\n","reflection_padding2d_104 (Refle (None, 66, 66, 256)  0           activation_79[0][0]              \n","__________________________________________________________________________________________________\n","conv2d_136 (Conv2D)             (None, 64, 64, 256)  589824      reflection_padding2d_104[0][0]   \n","__________________________________________________________________________________________________\n","instance_normalization_133 (Ins (None, 64, 64, 256)  512         conv2d_136[0][0]                 \n","__________________________________________________________________________________________________\n","add_46 (Add)                    (None, 64, 64, 256)  0           add_45[0][0]                     \n","                                                                 instance_normalization_133[0][0] \n","__________________________________________________________________________________________________\n","reflection_padding2d_105 (Refle (None, 66, 66, 256)  0           add_46[0][0]                     \n","__________________________________________________________________________________________________\n","conv2d_137 (Conv2D)             (None, 64, 64, 256)  589824      reflection_padding2d_105[0][0]   \n","__________________________________________________________________________________________________\n","instance_normalization_134 (Ins (None, 64, 64, 256)  512         conv2d_137[0][0]                 \n","__________________________________________________________________________________________________\n","activation_80 (Activation)      (None, 64, 64, 256)  0           instance_normalization_134[0][0] \n","__________________________________________________________________________________________________\n","reflection_padding2d_106 (Refle (None, 66, 66, 256)  0           activation_80[0][0]              \n","__________________________________________________________________________________________________\n","conv2d_138 (Conv2D)             (None, 64, 64, 256)  589824      reflection_padding2d_106[0][0]   \n","__________________________________________________________________________________________________\n","instance_normalization_135 (Ins (None, 64, 64, 256)  512         conv2d_138[0][0]                 \n","__________________________________________________________________________________________________\n","add_47 (Add)                    (None, 64, 64, 256)  0           add_46[0][0]                     \n","                                                                 instance_normalization_135[0][0] \n","__________________________________________________________________________________________________\n","reflection_padding2d_107 (Refle (None, 66, 66, 256)  0           add_47[0][0]                     \n","__________________________________________________________________________________________________\n","conv2d_139 (Conv2D)             (None, 64, 64, 256)  589824      reflection_padding2d_107[0][0]   \n","__________________________________________________________________________________________________\n","instance_normalization_136 (Ins (None, 64, 64, 256)  512         conv2d_139[0][0]                 \n","__________________________________________________________________________________________________\n","activation_81 (Activation)      (None, 64, 64, 256)  0           instance_normalization_136[0][0] \n","__________________________________________________________________________________________________\n","reflection_padding2d_108 (Refle (None, 66, 66, 256)  0           activation_81[0][0]              \n","__________________________________________________________________________________________________\n","conv2d_140 (Conv2D)             (None, 64, 64, 256)  589824      reflection_padding2d_108[0][0]   \n","__________________________________________________________________________________________________\n","instance_normalization_137 (Ins (None, 64, 64, 256)  512         conv2d_140[0][0]                 \n","__________________________________________________________________________________________________\n","add_48 (Add)                    (None, 64, 64, 256)  0           add_47[0][0]                     \n","                                                                 instance_normalization_137[0][0] \n","__________________________________________________________________________________________________\n","reflection_padding2d_109 (Refle (None, 66, 66, 256)  0           add_48[0][0]                     \n","__________________________________________________________________________________________________\n","conv2d_141 (Conv2D)             (None, 64, 64, 256)  589824      reflection_padding2d_109[0][0]   \n","__________________________________________________________________________________________________\n","instance_normalization_138 (Ins (None, 64, 64, 256)  512         conv2d_141[0][0]                 \n","__________________________________________________________________________________________________\n","activation_82 (Activation)      (None, 64, 64, 256)  0           instance_normalization_138[0][0] \n","__________________________________________________________________________________________________\n","reflection_padding2d_110 (Refle (None, 66, 66, 256)  0           activation_82[0][0]              \n","__________________________________________________________________________________________________\n","conv2d_142 (Conv2D)             (None, 64, 64, 256)  589824      reflection_padding2d_110[0][0]   \n","__________________________________________________________________________________________________\n","instance_normalization_139 (Ins (None, 64, 64, 256)  512         conv2d_142[0][0]                 \n","__________________________________________________________________________________________________\n","add_49 (Add)                    (None, 64, 64, 256)  0           add_48[0][0]                     \n","                                                                 instance_normalization_139[0][0] \n","__________________________________________________________________________________________________\n","reflection_padding2d_111 (Refle (None, 66, 66, 256)  0           add_49[0][0]                     \n","__________________________________________________________________________________________________\n","conv2d_143 (Conv2D)             (None, 64, 64, 256)  589824      reflection_padding2d_111[0][0]   \n","__________________________________________________________________________________________________\n","instance_normalization_140 (Ins (None, 64, 64, 256)  512         conv2d_143[0][0]                 \n","__________________________________________________________________________________________________\n","activation_83 (Activation)      (None, 64, 64, 256)  0           instance_normalization_140[0][0] \n","__________________________________________________________________________________________________\n","reflection_padding2d_112 (Refle (None, 66, 66, 256)  0           activation_83[0][0]              \n","__________________________________________________________________________________________________\n","conv2d_144 (Conv2D)             (None, 64, 64, 256)  589824      reflection_padding2d_112[0][0]   \n","__________________________________________________________________________________________________\n","instance_normalization_141 (Ins (None, 64, 64, 256)  512         conv2d_144[0][0]                 \n","__________________________________________________________________________________________________\n","add_50 (Add)                    (None, 64, 64, 256)  0           add_49[0][0]                     \n","                                                                 instance_normalization_141[0][0] \n","__________________________________________________________________________________________________\n","reflection_padding2d_113 (Refle (None, 66, 66, 256)  0           add_50[0][0]                     \n","__________________________________________________________________________________________________\n","conv2d_145 (Conv2D)             (None, 64, 64, 256)  589824      reflection_padding2d_113[0][0]   \n","__________________________________________________________________________________________________\n","instance_normalization_142 (Ins (None, 64, 64, 256)  512         conv2d_145[0][0]                 \n","__________________________________________________________________________________________________\n","activation_84 (Activation)      (None, 64, 64, 256)  0           instance_normalization_142[0][0] \n","__________________________________________________________________________________________________\n","reflection_padding2d_114 (Refle (None, 66, 66, 256)  0           activation_84[0][0]              \n","__________________________________________________________________________________________________\n","conv2d_146 (Conv2D)             (None, 64, 64, 256)  589824      reflection_padding2d_114[0][0]   \n","__________________________________________________________________________________________________\n","instance_normalization_143 (Ins (None, 64, 64, 256)  512         conv2d_146[0][0]                 \n","__________________________________________________________________________________________________\n","add_51 (Add)                    (None, 64, 64, 256)  0           add_50[0][0]                     \n","                                                                 instance_normalization_143[0][0] \n","__________________________________________________________________________________________________\n","reflection_padding2d_115 (Refle (None, 66, 66, 256)  0           add_51[0][0]                     \n","__________________________________________________________________________________________________\n","conv2d_147 (Conv2D)             (None, 64, 64, 256)  589824      reflection_padding2d_115[0][0]   \n","__________________________________________________________________________________________________\n","instance_normalization_144 (Ins (None, 64, 64, 256)  512         conv2d_147[0][0]                 \n","__________________________________________________________________________________________________\n","activation_85 (Activation)      (None, 64, 64, 256)  0           instance_normalization_144[0][0] \n","__________________________________________________________________________________________________\n","reflection_padding2d_116 (Refle (None, 66, 66, 256)  0           activation_85[0][0]              \n","__________________________________________________________________________________________________\n","conv2d_148 (Conv2D)             (None, 64, 64, 256)  589824      reflection_padding2d_116[0][0]   \n","__________________________________________________________________________________________________\n","instance_normalization_145 (Ins (None, 64, 64, 256)  512         conv2d_148[0][0]                 \n","__________________________________________________________________________________________________\n","add_52 (Add)                    (None, 64, 64, 256)  0           add_51[0][0]                     \n","                                                                 instance_normalization_145[0][0] \n","__________________________________________________________________________________________________\n","reflection_padding2d_117 (Refle (None, 66, 66, 256)  0           add_52[0][0]                     \n","__________________________________________________________________________________________________\n","conv2d_149 (Conv2D)             (None, 64, 64, 256)  589824      reflection_padding2d_117[0][0]   \n","__________________________________________________________________________________________________\n","instance_normalization_146 (Ins (None, 64, 64, 256)  512         conv2d_149[0][0]                 \n","__________________________________________________________________________________________________\n","activation_86 (Activation)      (None, 64, 64, 256)  0           instance_normalization_146[0][0] \n","__________________________________________________________________________________________________\n","reflection_padding2d_118 (Refle (None, 66, 66, 256)  0           activation_86[0][0]              \n","__________________________________________________________________________________________________\n","conv2d_150 (Conv2D)             (None, 64, 64, 256)  589824      reflection_padding2d_118[0][0]   \n","__________________________________________________________________________________________________\n","instance_normalization_147 (Ins (None, 64, 64, 256)  512         conv2d_150[0][0]                 \n","__________________________________________________________________________________________________\n","add_53 (Add)                    (None, 64, 64, 256)  0           add_52[0][0]                     \n","                                                                 instance_normalization_147[0][0] \n","__________________________________________________________________________________________________\n","conv2d_transpose_10 (Conv2DTran (None, 128, 128, 128 294912      add_53[0][0]                     \n","__________________________________________________________________________________________________\n","instance_normalization_148 (Ins (None, 128, 128, 128 256         conv2d_transpose_10[0][0]        \n","__________________________________________________________________________________________________\n","activation_87 (Activation)      (None, 128, 128, 128 0           instance_normalization_148[0][0] \n","__________________________________________________________________________________________________\n","conv2d_transpose_11 (Conv2DTran (None, 256, 256, 64) 73728       activation_87[0][0]              \n","__________________________________________________________________________________________________\n","instance_normalization_149 (Ins (None, 256, 256, 64) 128         conv2d_transpose_11[0][0]        \n","__________________________________________________________________________________________________\n","activation_88 (Activation)      (None, 256, 256, 64) 0           instance_normalization_149[0][0] \n","__________________________________________________________________________________________________\n","pruno2d_1 (Pruno2D)             (None, 256, 256, 64) 0           activation_88[0][0]              \n","__________________________________________________________________________________________________\n","reflection_padding2d_119 (Refle (None, 262, 262, 64) 0           pruno2d_1[0][0]                  \n","__________________________________________________________________________________________________\n","conv2d_151 (Conv2D)             (None, 256, 256, 3)  9411        reflection_padding2d_119[0][0]   \n","__________________________________________________________________________________________________\n","activation_89 (Activation)      (None, 256, 256, 3)  0           conv2d_151[0][0]                 \n","==================================================================================================\n","Total params: 11,383,427\n","Trainable params: 11,383,427\n","Non-trainable params: 0\n","__________________________________________________________________________________________________\n","__init__: similarity: 0.65\n","Pruno2D.build: input_sha
…
32, 32, 512)\n","Pruno2D.build: self.fmap_shape: (32, 32)\n","__init__: similarity: 0.65\n","Pruno2D.build: input_shape: (None, 32, 32, 512)\n","Pruno2D.build: self.fmap_shape: (32, 32)\n","Model: \"discriminator_Y\"\n","_________________________________________________________________\n","Layer (type)                 Output Shape              Param #   \n","=================================================================\n","discriminator_Y_img_input (I [(None, 256, 256, 3)]     0         \n","_________________________________________________________________\n","conv2d_157 (Conv2D)          (None, 128, 128, 64)      3136      \n","_________________________________________________________________\n","leaky_re_lu_20 (LeakyReLU)   (None, 128, 128, 64)      0         \n","_________________________________________________________________\n","conv2d_158 (Conv2D)          (None, 64, 64, 128)       131072    \n","_________________________________________________________________\n","instance_normalization_153 ( (None, 64, 64, 128)       256       \n","_________________________________________________________________\n","leaky_re_lu_21 (LeakyReLU)   (None, 64, 64, 128)       0         \n","_________________________________________________________________\n","conv2d_159 (Conv2D)          (None, 32, 32, 256)       524288    \n","_________________________________________________________________\n","instance_normalization_154 ( (None, 32, 32, 256)       512       \n","_________________________________________________________________\n","leaky_re_lu_22 (LeakyReLU)   (None, 32, 32, 256)       0         \n","_________________________________________________________________\n","conv2d_160 (Conv2D)          (None, 32, 32, 512)       2097152   \n","_________________________________________________________________\n","instance_normalization_155 ( (None, 32, 32, 512)       1024      \n","_________________________________________________________________\n","leaky_re_lu_23 (LeakyReLU)   (None, 32, 32, 512)       0         \n","_________________________________________________________________\n","pruno2d_3 (Pruno2D)          (None, 32, 32, 512)       0         \n","_________________________________________________________________\n","conv2d_161 (Conv2D)          (None, 32, 32, 1)         8193      \n","=================================================================\n","Total params: 2,765,633\n","Trainable params: 2,765,633\n","Non-trainable params: 0\n","_________________________________________________________________\n"],"name":"stdout"}]},{"cell_type":"code","metadata":{"id":"gVo6lKdnLkNN","colab":{"base_uri":"https://localhost:8080/","height":1000,"output_embedded_package_id":"
…
