…
7, padding=\"same\", strides=2, activation=\"relu\"\n","        ),\n","        layers.Conv1DTranspose(filters=1, kernel_size=7, padding=\"same\"),\n","    ]\n",")\n","model.compile(optimizer=keras.optimizers.Adam(learning_rate=0.001), loss=\"mse\")\n","model.summary()"],"execution_count":8,"outputs":[{"output_type":"stream","text":["Model: \"sequential\"\n","_________________________________________________________________\n","Layer (type)                 Output Shape              Param #   \n","=================================================================\n","conv1d (Conv1D)              (None, 144, 32)           256       \n","_________________________________________________________________\n","dropout (Dropout)            (None, 144, 32)           0         \n","_________________________________________________________________\n","conv1d_1 (Conv1D)            (None, 72, 16)            3600      \n","_________________________________________________________________\n","conv1d_transpose (Conv1DTran (None, 144, 16)           1808      \n","_________________________________________________________________\n","dropout_1 (Dropout)          (None, 144, 16)           0         \n","_________________________________________________________________\n","conv1d_transpose_1 (Conv1DTr (None, 288, 32)           3616      \n","_________________________________________________________________\n","conv1d_transpose_2 (Conv1DTr (None, 288, 1)            225       \n","=================================================================\n","Total params: 9,505\n","Trainable params: 9,505\n","Non-trainable params: 0\n","_________________________________________________________________\n"],"name":"stdout"}]},{"cell_type":"markdown","metadata":{"id":"C8F-1lJDu42O"},"source":["## Train the model\n","\n","Please note that we are using `x_train` as both the i
…
7, padding=\"same\"),\n","    ]\n",")\n","model.compile(optimizer=keras.optimizers.Adam(learning_rate=0.001), loss=\"mse\")\n","model.summary()"],"execution_count":19,"outputs":[{"output_type":"stream","text":["__init__: similarity: 0.65\n","Pruno1D.build: input_shape: (None, 288, 32)\n","Pruno1D.build: self.fmap_shape: (288,)\n","Model: \"sequential_1\"\n","_________________________________________________________________\n","Layer (type)                 Output Shape              Param #   \n","=================================================================\n","conv1d_4 (Conv1D)            (None, 144, 32)           256       \n","_________________________________________________________________\n","dropout_4 (Dropout)          (None, 144, 32)           0         \n","_________________________________________________________________\n","conv1d_5 (Conv1D)            (None, 72, 16)            3600      \n","_________________________________________________________________\n","conv1d_transpose_5 (Conv1DTr (None, 144, 16)           1808      \n","_________________________________________________________________\n","dropout_5 (Dropout)          (None, 144, 16)           0         \n","_________________________________________________________________\n","conv1d_transpose_6 (Conv1DTr (None, 288, 32)           3616      \n","_________________________________________________________________\n","pruno1d (Pruno1D)            (None, 288, 32)           0         \n","_________________________________________________________________\n","conv1d_transpose_7 (Conv1DTr (None, 288, 1)            225       \n","=================================================================\n","Total params: 9,505\n","Trainable params: 9,505\n","Non-trainable params: 0\n","_________________________________________________________________\n"],"name":"stdout"}]},{"cell_type":"code","metadata":{"colab":{"base_uri":"https://localhost:8080/"},"id":"gLZM889DwFpu","executionInfo":{"status":"ok","timestamp":1618292
…
