…
"output_type":"stream","text":["Model: \"model\"\n","__________________________________________________________________________________________________\n","Layer (type)                    Output Shape         Param #     Connected to                     \n","==================================================================================================\n","input (InputLayer)              [(None, 8000, 1)]    0                                            \n","__________________________________________________________________________________________________\n","conv1d_1 (Conv1D)               (None, 8000, 16)     64          input[0][0]                      \n","__________________________________________________________________________________________________\n","activation (Activation)         (None, 8000, 16)     0           conv1d_1[0][0]                   \n","__________________________________________________________________________________________________\n","conv1d_2 (Conv1D)               (None, 8000, 16)     784         activation[0][0]                 \n","__________________________________________________________________________________________________\n","conv1d (Conv1D)                 (None, 8000, 16)     32          input[0][0]                      \n","__________________________________________________________________________________________________\n","add (Add)                       (None, 8000, 16)     0           conv1d_2[0][0]                   \n","                                                                 conv1d[0][0]                     \n","__________________________________________________________________________________________________\n","activation_1 (Activation)       (None, 8000, 16)     0           add[0][0]                        \n","__________________________________________________________________________________________________\n","max_pooling1d (MaxPooling1D)    (None, 4000, 16)     0           activation_1[0][0]               \n","__________________________________________________________________________________________________\n","conv1d_4 (Conv1D)               (None, 4000, 32)     1568        max_pooling1d[0][0]              \n","__________________________________________________________________________________________________\n","activation_2 (Activation)       (None, 4000, 32)     0           conv1d_4[0][0]                   \n","__________________________________________________________________________________________________\n","conv1d_5 (Conv1D)               (None, 4000, 32)     3104        activation_2[0][0]               \n","__________________________________________________________________________________________________\n","conv1d_3 (Conv1D)               (None, 4000, 32)     544         max_pooling1d[0][0]              \n","__________________________________________________________________________________________________\n","add_1 (Add)                     (None, 4000, 32)     0           conv1d_5[0][0]                   \n","                                                                 conv1d_3[0][0]                   \n","__________________________________________________________________________________________________\n","activation_3 (Activation)       (None, 4000, 32)     0           add_1[0][0]                      \n","__________________________________________________________________________________________________\n","max_pooling1d_1 (MaxPooling1D)  (None, 2000, 32)     0           activation_3[0][0]               \n","__________________________________________________________________________________________________\n","conv1d_7 (Conv1D)               (None, 2000, 64)     6208        max_pooling1d_1[0][0]            \n","__________________________________________________________________________________________________\n","activation_4 (Activation)       (None, 2000, 64)     0           conv1d_7[0][0]                   \n","__________________________________________________________________________________________________\n","conv1d_8 (Conv1D)               (None, 2000, 64)     12352       activation_4[0][0]               \n","__________________________________________________________________________________________________\n","activation_5 (Activation)       (None, 2000, 64)     0           conv1d_8[0][0]                   \n","__________________________________________________________________________________________________\n","conv1d_9 (Conv1D)               (None, 2000, 64)     12352       activation_5[0][0]               \n","__________________________________________________________________________________________________\n","conv1d_6 (Conv1D)               (None, 2000, 64)     2112        max_pooling1d_1[0][0]            \n","__________________________________________________________________________________________________\n","add_2 (Add)                     (None, 2000, 64)     0           conv1d_9[0][0]                   \n","                                                                 conv1d_6[0][0]                   \n","__________________________________________________________________________________________________\n","activation_6 (Activation)       (None, 2000, 64)     0           add_2[0][0]                      \n","__________________________________________________________________________________________________\n","max_pooling1d_2 (MaxPooling1D)  (None, 1000, 64)     0           activation_6[0][0]               \n","__________________________________________________________________________________________________\n","conv1d_11 (Conv1D)              (None, 1000, 128)    24704       max_pooling1d_2[0][0]            \n","__________________________________________________________________________________________________\n","activation_7 (Activation)       (None, 1000, 128)    0           conv1d_11[0][0]                  \n","__________________________________________________________________________________________________\n","conv1d_12 (Conv1D)              (None, 1000, 128)    49280       activation_7[0][0]               \n","__________________________________________________________________________________________________\n","activation_8 (Activation)       (None, 1000, 128)    0           conv1d_12[0][0]                  \n","__________________________________________________________________________________________________\n","conv1d_13 (Conv1D)              (None, 1000, 128)    49280       activation_8[0][0]               \n","__________________________________________________________________________________________________\n","conv1d_10 (Conv1D)              (None, 1000, 128)    8320        max_pooling1d_2[0][0]            \n","__________________________________________________________________________________________________\n","add_3 (Add)                     (None, 1000, 128)    0           conv1d_13[0][0]                  \n","                                                                 conv1d_10[0][0]                  \n","__________________________________________________________________________________________________\n","activation_9 (Activation)       (None, 1000, 128)    0           add_3[0][0]                      \n","__________________________________________________________________________________________________\n","max_pooling1d_3 (MaxPooling1D)  (None, 500, 128)     0           activation_9[0][0]               \n","__________________________________________________________________________________________________\n","conv1d_15 (Conv1D)              (None, 500, 128)     49280       max_pooling1d_3[0][0]            \n","__________________________________________________________________________________________________\n","activation_10 (Activation)      (None, 500, 128)     0           conv1d_15[0][0]                  \n","__________________________________________________________________________________________________\n","conv1d_16 (Conv1D)              (None, 500, 128)     49280       activation_10[0][0]              \n","__________________________________________________________________________________________________\n","activation_11 (Activation)      (None, 500, 128)     0           conv1d_16[0][0]                  \n","__________________________________________________________________________________________________\n","conv1d_17 (Conv1D)              (None, 500, 128)     49280       activation_11[0][0]              \n","__________________________________________________________________________________________________\n","conv1d_14 (Conv1D)              (None, 500, 128)     16512       max_pooling1d_3[0][0]            \n","__________________________________________________________________________________________________\n","add_4 (Add)                     (None, 500, 128)     0           conv1d_17[0][0]                  \n","                                                                 conv1d_14[0][0]                  \n","__________________________________________________________________________________________________\n","activation_12 (Activation)      (None, 500, 128)     0           add_4[0][0]                      \n","__________________________________________________________________________________________________\n","max_pooling1d_4 (MaxPooling1D)  (None, 250, 128)     0           activation_12[0][0]              \n","__________________________________________________________________________________________________\n","average_pooling1d (AveragePooli (None, 83, 128)      0           max_pooling1d_4[0][0]            \n","__________________________________________________________________________________________________\n","flatten (Flatten)               (None, 10624)        0           average_pooling1d[0][0]          \n","__________________________________________________________________________________________________\n","dense (Dense)                   (None, 256)          2720000     flatten[0][0]                    \n","__________________________________________________________________________________________________\n","dense_1 (Dense)                 (None, 128)          32896       dense[0][0]                      \n","__________________________________________________________________________________________________\n","output (Dense)                  (None, 5)            645         dense_1[0][0]                    \n","==================================================================================================\n","Total params: 3,088,597\n","Trainable params: 3,088,597\n","Non-trainable params: 0\n","__________________________________________________________________________________________________\n"],"name":"stdout"}]},{"cell_type":"markdown","metadata":{"id"
…
: self.fmap_shape: (250,)\n","Model: \"model_1\"\n","__________________________________________________________________________________________________\n","Layer (type)                    Output Shape         Param #     Connected to                     \n","==================================================================================================\n","input (InputLayer)              [(None, 8000, 1)]    0                                            \n","__________________________________________________________________________________________________\n","conv1d_19 (Conv1D)              (None, 8000, 16)     64          input[0][0]                      \n","__________________________________________________________________________________________________\n","activation_13 (Activation)      (None, 8000, 16)     0           conv1d_19[0][0]                  \n","__________________________________________________________________________________________________\n","conv1d_20 (Conv1D)              (None, 8000, 16)     784         activation_13[0][0]              \n","__________________________________________________________________________________________________\n","conv1d_18 (Conv1D)              (None, 8000, 16)     32          input[0][0]                      \n","__________________________________________________________________________________________________\n","add_5 (Add)                     (None, 8000, 16)     0           conv1d_20[0][0]                  \n","                                                                 conv1d_18[0][0]                  \n","__________________________________________________________________________________________________\n","activation_14 (Activation)      (None, 8000, 16)     0           add_5[0][0]                      \n","__________________________________________________________________________________________________\n","max_pooling1d_5 (MaxPooling1D)  (None, 4000, 16)     0           activation_14[0][0]              \n","__________________________________________________________________________________________________\n","conv1d_22 (Conv1D)              (None, 4000, 32)     1568        max_pooling1d_5[0][0]            \n","__________________________________________________________________________________________________\n","activation_15 (Activation)      (None, 4000, 32)     0           conv1d_22[0][0]                  \n","__________________________________________________________________________________________________\n","conv1d_23 (Conv1D)              (None, 4000, 32)     3104        activation_15[0][0]              \n","__________________________________________________________________________________________________\n","conv1d_21 (Conv1D)              (None, 4000, 32)     544         max_pooling1d_5[0][0]            \n","__________________________________________________________________________________________________\n","add_6 (Add)                     (None, 4000, 32)     0           conv1d_23[0][0]                  \n","                                                                 conv1d_21[0][0]                  \n","__________________________________________________________________________________________________\n","activation_16 (Activation)      (None, 4000, 32)     0           add_6[0][0]                      \n","__________________________________________________________________________________________________\n","max_pooling1d_6 (MaxPooling1D)  (None, 2000, 32)     0           activation_16[0][0]              \n","__________________________________________________________________________________________________\n","conv1d_25 (Conv1D)              (None, 2000, 64)     6208        max_pooling1d_6[0][0]            \n","__________________________________________________________________________________________________\n","activation_17 (Activation)      (None, 2000, 64)     0           conv1d_25[0][0]                  \n","__________________________________________________________________________________________________\n","conv1d_26 (Conv1D)              (None, 2000, 64)     12352       activation_17[0][0]              \n","__________________________________________________________________________________________________\n","activation_18 (Activation)      (None, 2000, 64)     0           conv1d_26[0][0]                  \n","__________________________________________________________________________________________________\n","conv1d_27 (Conv1D)              (None, 2000, 64)     12352       activation_18[0][0]              \n","__________________________________________________________________________________________________\n","conv1d_24 (Conv1D)              (None, 2000, 64)     2112        max_pooling1d_6[0][0]            \n","__________________________________________________________________________________________________\n","add_7 (Add)                     (None, 2000, 64)     0           conv1d_27[0][0]                  \n","                                                                 conv1d_24[0][0]                  \n","__________________________________________________________________________________________________\n","activation_19 (Activation)      (None, 2000, 64)     0           add_7[0][0]                      \n","__________________________________________________________________________________________________\n","max_pooling1d_7 (MaxPooling1D)  (None, 1000, 64)     0           activation_19[0][0]              \n","__________________________________________________________________________________________________\n","conv1d_29 (Conv1D)              (None, 1000, 128)    24704       max_pooling1d_7[0][0]            \n","__________________________________________________________________________________________________\n","activation_20 (Activation)      (None, 1000, 128)    0           conv1d_29[0][0]                  \n","__________________________________________________________________________________________________\n","conv1d_30 (Conv1D)              (None, 1000, 128)    49280       activation_20[0][0]              \n","__________________________________________________________________________________________________\n","activation_21 (Activation)      (None, 1000, 128)    0           conv1d_30[0][0]                  \n","__________________________________________________________________________________________________\n","conv1d_31 (Conv1D)              (None, 1000, 128)    49280       activation_21[0][0]              \n","__________________________________________________________________________________________________\n","conv1d_28 (Conv1D)              (None, 1000, 128)    8320        max_pooling1d_7[0][0]            \n","__________________________________________________________________________________________________\n","add_8 (Add)                     (None, 1000, 128)    0           conv1d_31[0][0]                  \n","                                                                 conv1d_28[0][0]                  \n","__________________________________________________________________________________________________\n","activation_22 (Activation)      (None, 1000, 128)    0           add_8[0][0]                      \n","__________________________________________________________________________________________________\n","max_pooling1d_8 (MaxPooling1D)  (None, 500, 128)     0           activation_22[0][0]              \n","__________________________________________________________________________________________________\n","conv1d_33 (Conv1D)              (None, 500, 128)     49280       max_pooling1d_8[0][0]            \n","__________________________________________________________________________________________________\n","activation_23 (Activation)      (None, 500, 128)     0           conv1d_33[0][0]                  \n","__________________________________________________________________________________________________\n","conv1d_34 (Conv1D)              (None, 500, 128)     49280       activation_23[0][0]              \n","__________________________________________________________________________________________________\n","activation_24 (Activation)      (None, 500, 128)     0           conv1d_34[0][0]                  \n","__________________________________________________________________________________________________\n","conv1d_35 (Conv1D)              (None, 500, 128)     49280       activation_24[0][0]              \n","__________________________________________________________________________________________________\n","conv1d_32 (Conv1D)              (None, 500, 128)     16512       max_pooling1d_8[0][0]            \n","__________________________________________________________________________________________________\n","add_9 (Add)                     (None, 500, 128)     0           conv1d_35[0][0]                  \n","                                                                 conv1d_32[0][0]                  \n","__________________________________________________________________________________________________\n","activation_25 (Activation)      (None, 500, 128)     0           add_9[0][0]                      \n","__________________________________________________________________________________________________\n","max_pooling1d_9 (MaxPooling1D)  (None, 250, 128)     0           activation_25[0][0]              \n","__________________________________________________________________________________________________\n","pruno1d (Pruno1D)               (None, 250, 128)     0           max_pooling1d_9[0][0]            \n","__________________________________________________________________________________________________\n","average_pooling1d_1 (AveragePoo (None, 83, 128)      0           pruno1d[0][0]                    \n","__________________________________________________________________________________________________\n","flatten_1 (Flatten)             (None, 10624)        0           average_pooling1d_1[0][0]        \n","__________________________________________________________________________________________________\n","dense_2 (Dense)                 (None, 256)          2720000     flatten_1[0][0]                  \n","__________________________________________________________________________________________________\n","dense_3 (Dense)                 (None, 128)          32896       dense_2[0][0]                    \n","__________________________________________________________________________________________________\n","output (Dense)                  (None, 5)            645         dense_3[0][0]                    \n","==================================================================================================\n","Total params: 3,088,597\n","Trainable params: 3,088,597\n","Non-trainable params: 0\n","__________________________________________________________________________________________________\n"],"name":"stdout"}]},{"cell_type":"code","metadata":{"colab":
…
