…
tput_type":"stream","text":["Model: \"pointnet\"\n","__________________________________________________________________________________________________\n","Layer (type)                    Output Shape         Param #     Connected to                     \n","==================================================================================================\n","input_1 (InputLayer)            [(None, 2048, 3)]    0                                            \n","__________________________________________________________________________________________________\n","conv1d (Conv1D)                 (None, 2048, 32)     128         input_1[0][0]                    \n","__________________________________________________________________________________________________\n","activation (Activation)         (None, 2048, 32)     0           conv1d[0][0]                     \n","__________________________________________________________________________________________________\n","conv1d_1 (Conv1D)               (None, 2048, 64)     2112        activation[0][0]                 \n","__________________________________________________________________________________________________\n","activation_1 (Activation)       (None, 2048, 64)     0           conv1d_1[0][0]                   \n","__________________________________________________________________________________________________\n","conv1d_2 (Conv1D)               (None, 2048, 512)    33280       activation_1[0][0]               \n","__________________________________________________________________________________________________\n","batch_normalization (BatchNorma (None, 2048, 512)    2048        conv1d_2[0][0]                   \n","__________________________________________________________________________________________________\n","activation_2 (Activation)       (None, 2048, 512)    0           batch_normalization[0][0]        \n","__________________________________________________________________________________________________\n","global_max_pooling1d (GlobalMax (None, 512)          0           activation_2[0][0]               \n","__________________________________________________________________________________________________\n","dense (Dense)                   (None, 256)          131328      global_max_pooling1d[0][0]       \n","__________________________________________________________________________________________________\n","batch_normalization_1 (BatchNor (None, 256)          1024        dense[0][0]                      \n","__________________________________________________________________________________________________\n","activation_3 (Activation)       (None, 256)          0           batch_normalization_1[0][0]      \n","__________________________________________________________________________________________________\n","dense_1 (Dense)                 (None, 128)          32896       activation_3[0][0]               \n","__________________________________________________________________________________________________\n","batch_normalization_2 (BatchNor (None, 128)          512         dense_1[0][0]                    \n","__________________________________________________________________________________________________\n","activation_4 (Activation)       (None, 128)          0           batch_normalization_2[0][0]      \n","__________________________________________________________________________________________________\n","dense_2 (Dense)                 (None, 9)            1161        activation_4[0][0]               \n","__________________________________________________________________________________________________\n","reshape (Reshape)               (None, 3, 3)         0           dense_2[0][0]                    \n","__________________________________________________________________________________________________\n","dot (Dot)                       (None, 2048, 3)      0           input_1[0][0]                    \n","                                                                 reshape[0][0]                    \n","__________________________________________________________________________________________________\n","conv1d_3 (Conv1D)               (None, 2048, 32)     128         dot[0][0]                        \n","__________________________________________________________________________________________________\n","batch_normalization_3 (BatchNor (None, 2048, 32)     128         conv1d_3[0][0]                   \n","__________________________________________________________________________________________________\n","activation_5 (Activation)       (None, 2048, 32)     0           batch_normalization_3[0][0]      \n","__________________________________________________________________________________________________\n","conv1d_4 (Conv1D)               (None, 2048, 32)     1056        activation_5[0][0]               \n","__________________________________________________________________________________________________\n","batch_normalization_4 (BatchNor (None, 2048, 32)     128         conv1d_4[0][0]                   \n","__________________________________________________________________________________________________\n","activation_6 (Activation)       (None, 2048, 32)     0           batch_normalization_4[0][0]      \n","__________________________________________________________________________________________________\n","conv1d_5 (Conv1D)               (None, 2048, 32)     1056        activation_6[0][0]               \n","__________________________________________________________________________________________________\n","activation_7 (Activation)       (None, 2048, 32)     0           conv1d_5[0][0]                   \n","__________________________________________________________________________________________________\n","conv1d_6 (Conv1D)               (None, 2048, 64)     2112        activation_7[0][0]               \n","__________________________________________________________________________________________________\n","activation_8 (Activation)       (None, 2048, 64)     0           conv1d_6[0][0]                   \n","__________________________________________________________________________________________________\n","conv1d_7 (Conv1D)               (None, 2048, 512)    33280       activation_8[0][0]               \n","__________________________________________________________________________________________________\n","batch_normalization_5 (BatchNor (None, 2048, 512)    2048        conv1d_7[0][0]                   \n","__________________________________________________________________________________________________\n","activation_9 (Activation)       (None, 2048, 512)    0           batch_normalization_5[0][0]      \n","__________________________________________________________________________________________________\n","global_max_pooling1d_1 (GlobalM (None, 512)          0           activation_9[0][0]               \n","__________________________________________________________________________________________________\n","dense_3 (Dense)                 (None, 256)          131328      global_max_pooling1d_1[0][0]     \n","__________________________________________________________________________________________________\n","batch_normalization_6 (BatchNor (None, 256)          1024        dense_3[0][0]                    \n","__________________________________________________________________________________________________\n","activation_10 (Activation)      (None, 256)          0           batch_normalization_6[0][0]      \n","__________________________________________________________________________________________________\n","dense_4 (Dense)                 (None, 128)          32896       activation_10[0][0]              \n","__________________________________________________________________________________________________\n","batch_normalization_7 (BatchNor (None, 128)          512         dense_4[0][0]                    \n","__________________________________________________________________________________________________\n","activation_11 (Activation)      (None, 128)          0           batch_normalization_7[0][0]      \n","__________________________________________________________________________________________________\n","dense_5 (Dense)                 (None, 1024)         132096      activation_11[0][0]              \n","__________________________________________________________________________________________________\n","reshape_1 (Reshape)             (None, 32, 32)       0           dense_5[0][0]                    \n","__________________________________________________________________________________________________\n","dot_1 (Dot)                     (None, 2048, 32)     0           activation_6[0][0]               \n","                                                                 reshape_1[0][0]                  \n","__________________________________________________________________________________________________\n","conv1d_8 (Conv1D)               (None, 2048, 32)     1056        dot_1[0][0]                      \n","__________________________________________________________________________________________________\n","batch_normalization_8 (BatchNor (None, 2048, 32)     128         conv1d_8[0][0]                   \n","__________________________________________________________________________________________________\n","activation_12 (Activation)      (None, 2048, 32)     0           batch_normalization_8[0][0]      \n","__________________________________________________________________________________________________\n","conv1d_9 (Conv1D)               (None, 2048, 64)     2112        activation_12[0][0]              \n","__________________________________________________________________________________________________\n","batch_normalization_9 (BatchNor (None, 2048, 64)     256         conv1d_9[0][0]                   \n","__________________________________________________________________________________________________\n","activation_13 (Activation)      (None, 2048, 64)     0           batch_normalization_9[0][0]      \n","__________________________________________________________________________________________________\n","conv1d_10 (Conv1D)              (None, 2048, 512)    33280       activation_13[0][0]              \n","__________________________________________________________________________________________________\n","batch_normalization_10 (BatchNo (None, 2048, 512)    2048        conv1d_10[0][0]                  \n","__________________________________________________________________________________________________\n","activation_14 (Activation)      (None, 2048, 512)    0           batch_normalization_10[0][0]     \n","__________________________________________________________________________________________________\n","global_max_pooling1d_2 (GlobalM (None, 512)          0           activation_14[0][0]              \n","__________________________________________________________________________________________________\n","dense_6 (Dense)                 (None, 256)          131328      global_max_pooling1d_2[0][0]     \n","__________________________________________________________________________________________________\n","batch_normalization_11 (BatchNo (None, 256)          1024        dense_6[0][0]                    \n","__________________________________________________________________________________________________\n","activation_15 (Activation)      (None, 256)          0           batch_normalization_11[0][0]     \n","__________________________________________________________________________________________________\n","dropout (Dropout)               (None, 256)          0           activation_15[0][0]              \n","__________________________________________________________________________________________________\n","dense_7 (Dense)                 (None, 128)          32896       dropout[0][0]                    \n","__________________________________________________________________________________________________\n","batch_normalization_12 (BatchNo (None, 128)          512         dense_7[0][0]                    \n","__________________________________________________________________________________________________\n","activation_16 (Activation)      (None, 128)          0           batch_normalization_12[0][0]     \n","__________________________________________________________________________________________________\n","dropout_1 (Dropout)             (None, 128)          0           activation_16[0][0]              \n","__________________________________________________________________________________________________\n","dense_8 (Dense)                 (None, 10)           1290        dropout_1[0][0]                  \n","==================================================================================================\n","Total params: 748,211\n","Trainable params: 742,515\n","Non-trainable params: 5,696\n","__________________________________________________________________________________________________\n"],"name":"stdout"}]},{"cell_type":"markdown","metadata":{"id":
…
self.fmap_shape: (2048,)\n","Model: \"pointnet\"\n","__________________________________________________________________________________________________\n","Layer (type)                    Output Shape         Param #     Connected to                     \n","==================================================================================================\n","input_6 (InputLayer)            [(None, 2048, 3)]    0                                            \n","__________________________________________________________________________________________________\n","conv1d_55 (Conv1D)              (None, 2048, 32)     128         input_6[0][0]                    \n","__________________________________________________________________________________________________\n","activation_85 (Activation)      (None, 2048, 32)     0           conv1d_55[0][0]                  \n","__________________________________________________________________________________________________\n","conv1d_56 (Conv1D)              (None, 2048, 64)     2112        activation_85[0][0]              \n","__________________________________________________________________________________________________\n","activation_86 (Activation)      (None, 2048, 64)     0           conv1d_56[0][0]                  \n","__________________________________________________________________________________________________\n","conv1d_57 (Conv1D)              (None, 2048, 512)    33280       activation_86[0][0]              \n","__________________________________________________________________________________________________\n","batch_normalization_61 (BatchNo (None, 2048, 512)    2048        conv1d_57[0][0]                  \n","__________________________________________________________________________________________________\n","activation_87 (Activation)      (None, 2048, 512)    0           batch_normalization_61[0][0]     \n","__________________________________________________________________________________________________\n","global_max_pooling1d_15 (Global (None, 512)          0           activation_87[0][0]              \n","__________________________________________________________________________________________________\n","dense_45 (Dense)                (None, 256)          131328      global_max_pooling1d_15[0][0]    \n","__________________________________________________________________________________________________\n","batch_normalization_62 (BatchNo (None, 256)          1024        dense_45[0][0]                   \n","__________________________________________________________________________________________________\n","activation_88 (Activation)      (None, 256)          0           batch_normalization_62[0][0]     \n","__________________________________________________________________________________________________\n","dense_46 (Dense)                (None, 128)          32896       activation_88[0][0]              \n","__________________________________________________________________________________________________\n","batch_normalization_63 (BatchNo (None, 128)          512         dense_46[0][0]                   \n","__________________________________________________________________________________________________\n","activation_89 (Activation)      (None, 128)          0           batch_normalization_63[0][0]     \n","__________________________________________________________________________________________________\n","dense_47 (Dense)                (None, 9)            1161        activation_89[0][0]              \n","__________________________________________________________________________________________________\n","reshape_10 (Reshape)            (None, 3, 3)         0           dense_47[0][0]                   \n","__________________________________________________________________________________________________\n","dot_10 (Dot)                    (None, 2048, 3)      0           input_6[0][0]                    \n","                                                                 reshape_10[0][0]                 \n","__________________________________________________________________________________________________\n","conv1d_58 (Conv1D)              (None, 2048, 32)     128         dot_10[0][0]                     \n","__________________________________________________________________________________________________\n","batch_normalization_64 (BatchNo (None, 2048, 32)     128         conv1d_58[0][0]                  \n","__________________________________________________________________________________________________\n","activation_90 (Activation)      (None, 2048, 32)     0           batch_normalization_64[0][0]     \n","__________________________________________________________________________________________________\n","conv1d_59 (Conv1D)              (None, 2048, 32)     1056        activation_90[0][0]              \n","__________________________________________________________________________________________________\n","batch_normalization_65 (BatchNo (None, 2048, 32)     128         conv1d_59[0][0]                  \n","__________________________________________________________________________________________________\n","activation_91 (Activation)      (None, 2048, 32)     0           batch_normalization_65[0][0]     \n","__________________________________________________________________________________________________\n","conv1d_60 (Conv1D)              (None, 2048, 32)     1056        activation_91[0][0]              \n","__________________________________________________________________________________________________\n","activation_92 (Activation)      (None, 2048, 32)     0           conv1d_60[0][0]                  \n","__________________________________________________________________________________________________\n","conv1d_61 (Conv1D)              (None, 2048, 64)     2112        activation_92[0][0]              \n","__________________________________________________________________________________________________\n","activation_93 (Activation)      (None, 2048, 64)     0           conv1d_61[0][0]                  \n","__________________________________________________________________________________________________\n","conv1d_62 (Conv1D)              (None, 2048, 512)    33280       activation_93[0][0]              \n","__________________________________________________________________________________________________\n","batch_normalization_66 (BatchNo (None, 2048, 512)    2048        conv1d_62[0][0]                  \n","__________________________________________________________________________________________________\n","activation_94 (Activation)      (None, 2048, 512)    0           batch_normalization_66[0][0]     \n","__________________________________________________________________________________________________\n","global_max_pooling1d_16 (Global (None, 512)          0           activation_94[0][0]              \n","__________________________________________________________________________________________________\n","dense_48 (Dense)                (None, 256)          131328      global_max_pooling1d_16[0][0]    \n","__________________________________________________________________________________________________\n","batch_normalization_67 (BatchNo (None, 256)          1024        dense_48[0][0]                   \n","__________________________________________________________________________________________________\n","activation_95 (Activation)      (None, 256)          0           batch_normalization_67[0][0]     \n","__________________________________________________________________________________________________\n","dense_49 (Dense)                (None, 128)          32896       activation_95[0][0]              \n","__________________________________________________________________________________________________\n","batch_normalization_68 (BatchNo (None, 128)          512         dense_49[0][0]                   \n","__________________________________________________________________________________________________\n","activation_96 (Activation)      (None, 128)          0           batch_normalization_68[0][0]     \n","__________________________________________________________________________________________________\n","dense_50 (Dense)                (None, 1024)         132096      activation_96[0][0]              \n","__________________________________________________________________________________________________\n","reshape_11 (Reshape)            (None, 32, 32)       0           dense_50[0][0]                   \n","__________________________________________________________________________________________________\n","dot_11 (Dot)                    (None, 2048, 32)     0           activation_91[0][0]              \n","                                                                 reshape_11[0][0]                 \n","__________________________________________________________________________________________________\n","conv1d_63 (Conv1D)              (None, 2048, 32)     1056        dot_11[0][0]                     \n","__________________________________________________________________________________________________\n","batch_normalization_69 (BatchNo (None, 2048, 32)     128         conv1d_63[0][0]                  \n","__________________________________________________________________________________________________\n","activation_97 (Activation)      (None, 2048, 32)     0           batch_normalization_69[0][0]     \n","__________________________________________________________________________________________________\n","conv1d_64 (Conv1D)              (None, 2048, 64)     2112        activation_97[0][0]              \n","__________________________________________________________________________________________________\n","batch_normalization_70 (BatchNo (None, 2048, 64)     256         conv1d_64[0][0]                  \n","__________________________________________________________________________________________________\n","activation_98 (Activation)      (None, 2048, 64)     0           batch_normalization_70[0][0]     \n","__________________________________________________________________________________________________\n","conv1d_65 (Conv1D)              (None, 2048, 512)    33280       activation_98[0][0]              \n","__________________________________________________________________________________________________\n","batch_normalization_71 (BatchNo (None, 2048, 512)    2048        conv1d_65[0][0]                  \n","__________________________________________________________________________________________________\n","activation_99 (Activation)      (None, 2048, 512)    0           batch_normalization_71[0][0]     \n","__________________________________________________________________________________________________\n","pruno1d_4 (Pruno1D)             (None, 2048, 512)    0           activation_99[0][0]              \n","__________________________________________________________________________________________________\n","global_max_pooling1d_17 (Global (None, 512)          0           pruno1d_4[0][0]                  \n","__________________________________________________________________________________________________\n","dense_51 (Dense)                (None, 256)          131328      global_max_pooling1d_17[0][0]    \n","__________________________________________________________________________________________________\n","activation_100 (Activation)     (None, 256)          0           dense_51[0][0]                   \n","__________________________________________________________________________________________________\n","dropout_10 (Dropout)            (None, 256)          0           activation_100[0][0]             \n","__________________________________________________________________________________________________\n","dense_52 (Dense)                (None, 128)          32896       dropout_10[0][0]                 \n","__________________________________________________________________________________________________\n","batch_normalization_72 (BatchNo (None, 128)          512         dense_52[0][0]                   \n","__________________________________________________________________________________________________\n","activation_101 (Activation)     (None, 128)          0           batch_normalization_72[0][0]     \n","__________________________________________________________________________________________________\n","dropout_11 (Dropout)            (None, 128)          0           activation_101[0][0]             \n","__________________________________________________________________________________________________\n","dense_53 (Dense)                (None, 10)           1290        dropout_11[0][0]                 \n","==================================================================================================\n","Total params: 747,187\n","Trainable params: 742,003\n","Non-trainable params: 5,184\n","__________________________________________________________________________________________________\n"],"name":"stdout"}]},{"cell_type":"code","metadata":{"colab":{
…
