…
e_uri":"https://localhost:8080/"},"executionInfo":{"elapsed":8694,"status":"ok","timestamp":1618460471203,"user":{"displayName":"Lance N.","photoUrl":"","userId":"10641691903871358793"},"user_tz":420},"id":"R_wGp3FixPjS","outputId":"de6391a0-a884-4ce2-a0d3-7a422ba0a4f3"},"outputs":[{"name":"stdout","output_type":"stream","text":["Model: \"discriminator\"\n","_________________________________________________________________\n","Layer (type)                 Output Shape              Param #   \n","=================================================================\n","conv2d_16 (Conv2D)           (None, 32, 32, 64)        3136      \n","_________________________________________________________________\n","leaky_re_lu_24 (LeakyReLU)   (None, 32, 32, 64)        0         \n","_________________________________________________________________\n","conv2d_17 (Conv2D)           (None, 16, 16, 128)       131200    \n","_________________________________________________________________\n","leaky_re_lu_25 (LeakyReLU)   (None, 16, 16, 128)       0         \n","_________________________________________________________________\n","conv2d_18 (Conv2D)           (None, 8, 8, 128)         262272    \n","_________________________________________________________________\n","leaky_re_lu_26 (LeakyReLU)   (None, 8, 8, 128)         0         \n","_________________________________________________________________\n","flatten_4 (Flatten)          (None, 8192)              0         \n","_________________________________________________________________\n","dropout_4 (Dropout)          (None, 8192)              0         \n","_________________________________________________________________\n","dense_8 (Dense)              (None, 1)                 8193      \n","=================================================================\n","Total params: 404,801\n","Trainable params: 404,801\n","Non-trainable params: 0\n","_________________________________________________________________\n"]}],"source":["discriminator = keras.Sequential(\n","    [\n","        keras.Input(shape=(64, 64, 3)),\n","        layers.Conv2D(64, kernel_size=4, strides=2, padding=
…
"base_uri":"https://localhost:8080/"},"executionInfo":{"elapsed":8687,"status":"ok","timestamp":1618460471204,"user":{"displayName":"Lance N.","photoUrl":"","userId":"10641691903871358793"},"user_tz":420},"id":"byAxNFQjxPjT","outputId":"5578fefe-14eb-4e8e-ee98-6b94bd1b4615"},"outputs":[{"name":"stdout","output_type":"stream","text":["Model: \"generator\"\n","_________________________________________________________________\n","Layer (type)                 Output Shape              Param #   \n","=================================================================\n","dense_9 (Dense)              (None, 8192)              1056768   \n","_________________________________________________________________\n","reshape_4 (Reshape)          (None, 8, 8, 128)         0         \n","_________________________________________________________________\n","conv2d_transpose_12 (Conv2DT (None, 16, 16, 128)       262272    \n","_________________________________________________________________\n","leaky_re_lu_27 (LeakyReLU)   (None, 16, 16, 128)       0         \n","_________________________________________________________________\n","conv2d_transpose_13 (Conv2DT (None, 32, 32, 256)       524544    \n","_________________________________________________________________\n","leaky_re_lu_28 (LeakyReLU)   (None, 32, 32, 256)       0         \n","_________________________________________________________________\n","conv2d_transpose_14 (Conv2DT (None, 64, 64, 512)       2097664   \n","_________________________________________________________________\n","leaky_re_lu_29 (LeakyReLU)   (None, 64, 64, 512)       0         \n","_________________________________________________________________\n","conv2d_19 (Conv2D)           (None, 64, 64, 3)         38403     \n","=================================================================\n","Total params: 3,979,651\n","Trainable params: 3,979,651\n","Non-trainable params: 0\n","_________________________________________________________________\n"]}],"source":["latent_dim = 128\n","\n","generator = keras.Sequential(\n","    [\n","        keras.Input(shape=(latent_dim,)),\n","        layers.Dense(8 * 8 * 128)
…
